save_model/kd_Student_1_0.9150999784469604.pth (torch, 65183 bytes, 4 tensors)

fc1.weight f4 [20, 784]
000000 fc 23 0b 3c a4 01 7b 3c 18 d7 0b 3c c7 0d 08 bd
       0.008492466 0.015320215 0.008535169 -0.033216264
000010 a5 d6 af bc 63 1b f9 bc bc ee 21 3c 67 ee 0f bd
       -0.021464655 -0.030408567 0.009883579 -0.035139468
000020 b4 36 3f 3c a4 f9 0e 3c e6 34 7e bc 51 a5 0c 3d
       0.011670757 0.008726511 -0.015515542 0.034337346
000030 b0 a9 41 bd 3e fa af bc a8 43 98 3c 37 bf 6a bb
       -0.047280967 -0.02148163 0.018586949 -0.003581954
000040 0e 4f e7 bc 12 a0 59 bc 70 05 28 3c 02 0d df 3c
       -0.028235938 -0.013282793 0.010255203 0.027227882
000050 5a d4 c0 bc 0a c6 08 bc e2 55 b0 3c 67 9a 10 bd
       -0.023538757 -0.008347997 0.021525327 -0.0353035
000060 a4 2a e3 bb 43 9b 08 bd 03 4e 11 3d ce b4 99 bc
       -0.0069325734 -0.033351194 0.03547479 -0.018762972
000070 6a 4e f9 3c 74 0f 80 3c 94 43 6b 3c e0 4d 26 3c
       0.030432899 0.015632369 0.014359374 0.010150403
000080 39 c6 44 bd 0a e0 25 bd 5a ec 7e bd 59 53 b9 bd
       -0.048040602 -0.040496863 -0.06223712 -0.090491004
000090 37 18 a8 bd ae ca ce bd 9e ca f7 bd 99 16 23 be
       -0.082077436 -0.10097252 -0.12099193 -0.15926589
0000a0 fe 91 fc bd e0 3c 05 be 4c c9 f9 bd 72 a5 ae bd
       -0.12332533 -0.13011503 -0.121965975 -0.0852765
0000b0 c7 e2 31 bd 97 27 e2 bd 0d b9 a7 bd 21 99 d9 bd
       -0.043429162 -0.110427074 -0.081895925 -0.1062491
0000c0 68 41 d5 bd c6 7b 2d bd 89 c8 8d bd af 21 40 bd
       -0.10412866 -0.042354368 -0.06923015 -0.046907123
0000d0 76 cb e3 3c c2 c9 bb 3c be 05 c0 3c d0 b4 a1 3b
       0.027806979 0.022923354 0.023440238 0.0049348846
0000e0 2c 0a 8d bc 78 1f ca 3c 92 c6 16 bd 15 b6 89 bc
       -0.017216764 0.024673209 -0.036810465 -0.016810456
0000f0 5f a4 9c bc 30 8e 04 bd 33 a0 a1 bd 4d 42 d9 bd
       -0.019121347 -0.032362163 -0.07891884 -0.10608349
000100 05 45 18 be 13 f4 16 be 00 26 6a be c2 15 7f be
       -0.14870079 -0.14741544 -0.22866058 -0.24910644
000110 4e 81 85 be 1e f7 a0 be 7d fd 77 be 34 07 72 be
       -0.26075214 -0.31438535 -0.24217792 -0.2363556
000120 55 9d 6c be 34 af 31 be 3f 83 42 be d9 d0 54 be
       -0.23106892 -0.17351991 -0.18995379 -0.20782794
000130 13 5b 06 be cf 27 c5 bd 9f 61 e5 bd 39 69 ce bd
       -0.1312068 -0.096267335 -0.1120026 -0.100786634
000140 52 83 13 bd a1 e2 b1 bc d0 63 67 bb 10 0a 89 3c
       -0.03601391 -0.02171451 -0.0035307296 0.016728431
000150 ce a3 35 bc b0 b2 02 3c 54 2c 34 3d 47 73 cd bc
       -0.011086417 0.007977173 0.043987587 -0.025079383
000160 f0 ab 70 bd 40 af 12 bd 91 43 98 bd d8 41 f2 bd
       -0.058757722 -0.035811663 -0.07434762 -0.11828965
000170 ef ae b2 bd e5 67 b0 bd 89 64 e9 bd 6d 04 11 be
       -0.08724772 -0.08613566 -0.11396129 -0.14161845
000180 b8 f1 29 be 80 a5 16 be 38 43 16 be 0a 1b 17 be
       -0.16596115 -0.1471157 -0.1467408 -0.14756408
000190 e2 4e 06 be 9e 83 3a bd fb f7 b6 bd 3c 0f 5e bd
       -0.13116029 -0.045535676 -0.08934017 -0.054213747
0001a0 f0 b2 ac bd b2 1d 31 bd ac f8 d9 bc 50 4d fa bc
       -0.08432567 -0.04324121 -0.026607834 -0.030554444
0001b0 01 2d 43 bc 36 fe eb 3b c0 e5 76 bc 26 86 6d bc
       -0.011912585 0.007201935 -0.015069425 -0.0144973155
0001c0 3a 7c 07 bd cf dc b0 3c 13 c1 c5 3b 95 4d 7e bc
       -0.033077456 0.021589665 0.006034979 -0.015521427
0001d0 f9 8b 27 bb 8e 6f ce bc 69 f2 90 bc bb 1d 36 3d
       -0.0025565608 -0.025199678 -0.017693715 0.044461947
0001e0 b7 2d a1 bc 81 9c 87 3c c1 92 95 bc 92 2b 29 3d
       -0.019675119 0.016554119 -0.018258454 0.041301318
0001f0 3b 4b 17 3d 4e 04 d2 3c b2 63 5b 3c e2 7f 2f ba
       0.03693698 0.025636818 0.013390468 -0.0006694776
000200 5a ec 9e 3c f2 a0 99 3c 3b 5b 51 bc d1 96 c8 bc
       0.01939981 0.018753503 -0.012778099 -0.024485977
000210 c2 5a 3f bd aa 37 38 bd 6a ed f5 bc 67 ca 0f bd
       -0.046717413 -0.04497496 -0.030020434 -0.035105135
000220 23 e7 ff 3b 2a da e0 bc f4 72 91 bc e9 00 f5 bc
       0.007809536 -0.027447779 -0.01775501 -0.02990766
000230 c0 42 93 3b 88 bf d5 3c 73 b0 6c bb 92 40 91 3c
       0.004494041 0.026092306 -0.0036115914 0.017730985
000240 64 f3 8c 3c 9f 10 51 3c 94 5c 9e 3d f8 0d 7e 3d
       0.017205901 0.01276031 0.077325016 0.06202504
000250 86 14 b8 3d 23 0f 81 3d 9c a8 32 3d 1c e5 20 3d
       0.089882895 0.06301715 0.04361783 0.039280996
000260 bd 73 cd 3c c8 8c 0c bd a0 6f 25 3c c6 3c b7 3c
       0.025079602 -0.034313947 0.010097414 0.022367846
000270 62 59 8a 3c 59 20 dc 3c 2f 6f 34 bc 2b fa bf bc
       0.016888324 0.026870893 -0.011012836 -0.02343472
000280 b3 9f 84 bc 7f 90 8a 3b d3 8d 9a 3c d8 b0 3a 3d
       -0.016189432 0.004228651 0.018866455 0.045578808
000290 36 7c 71 3d c3 42 13 3d d7 44 80 3c 08 f9 63 3c
       0.058956347 0.03595234 0.015657825 0.013914354
0002a0 e8 01 3b 3c a8 dd c8 bc b7 b1 44 3d 62 9e 40 bc
       0.011414029 -0.024519756 0.048021045 -0.011756511
0002b0 9f 6d 46 3d 8e 0f 7f 3d c1 df 35 3d 8f d1 50 3d
       0.048444387 0.062270693 0.04440284 0.0509811
0002c0 32 33 cf 3c a5 79 29 3d 5f c9 3d bb 84 b3 51 3c
       0.025292967 0.041375775 -0.0028959138 0.0127991475
0002d0 5d 50 6e bd f6 ec 8a bc 9e 76 41 bd 7e 57 57 bc
       -0.05818211 -0.016958695 -0.047232263 -0.013143418
0002e0 a7 6f 2f bd 1d 4b 06 bd 05 77 a7 bc 77 ec 51 bd
       -0.04283109 -0.032786477 -0.020442495 -0.0512509
0002f0 b1 76 be bc 31 65 51 bd 41 cf 99 3b 49 95 8d bc
       -0.023249956 -0.051121894 0.004693896 -0.017283099
000300 a0 bd 1d bd b4 ae 52 bd b6 43 de bb 6b 04 2e 3b
       -0.03851092 -0.05143614 -0.006782974 0.0026552926
000310 6e 64 4c bc d3 46 90 3c 57 85 02 3e 99 fa d1 3d
       -0.012475116 0.017611897 0.12746178 0.10252876
000320 e5 54 33 3c 2a 2b 3d 3d 3f c0 7e 3d ff a6 44 3d
       0.010945533 0.046183743 0.06219506 0.048010822
000330 3c 20 a2 3c 61 fc 3d 3d df 9a 92 3c a5 f1 00 3d
       0.019790761 0.046383265 0.017896114 0.03148045
000340 c3 7e 1a bd 14 22 df b9 38 95 5c bd 9c 09 9c bd
       -0.037718546 -0.00042559265 -0.053853244 -0.0761902
000350 2a ee 4e bd 9e 15 1e bd 01 f1 14 bd 43 00 9b bb
       -0.0505201 -0.038594835 -0.03636265 -0.004730256
000360 5c 4a c0 bc 11 e6 fe bc 33 6d f4 bc 0c 40 26 bd
       -0.023472957 -0.031115564 -0.029837226 -0.040588424
000370 3c 22 0f be f3 de e2 bd 19 90 6a bd 25 a6 8e bd
       -0.13977903 -0.110776804 -0.05726633 -0.06965283
000380 4a 15 4d bd cd ea d2 3d 14 f1 0a 3e 89 f4 d1 3d
       -0.05006913 0.10298691 0.13568527 0.102517195
000390 0d 0a a0 3d 52 8e 63 3d 83 df 68 3d 12 31 bc 3c
       0.07814417 0.05555565 0.056853782 0.022972617
0003a0 e7 f9 a7 3d 77 dc 97 3d b8 c4 39 3d 4f 8e 4e 3d
       0.08201962 0.07415097 0.04535362 0.050428685
0003b0 9a 8f 2a 3d 24 6b 9f 3c 78 3d 63 3c 51 f3 06 bd
       0.041640855 0.019460268 0.013869636 -0.03294689
0003c0 8e 88 b0 bb d3 48 ad bc 0f b7 20 bc bd 05 fc 3b
       -0.0053873723 -0.02115289 -0.00980927 0.0076911137
0003d0 73 1b 2e bc a7 c6 3c 3c da e2 49 bd 26 52 d6 bd
       -0.010626662 0.011521972 -0.049288608 -0.10464887
0003e0 47 5a 23 be a1 0b 17 be 1d 68 b6 bd 88 24 f4 bc
       -0.15952407 -0.1475053 -0.08906577 -0.029802576
0003f0 9f eb 51 3d f5 18 ca 3d e9 a1 b6 3d 87 28 aa 3d
       0.051250096 0.098680414 0.08917601 0.08308511

fc1.bias f4 [20]
000000 64 53 e0 3d cd a2 41 3e b5 9b 9e bd 91 0b 87 3e
       0.109534055 0.1890976 -0.077445425 0.26376012
000010 7e 8b 2b 3d db 84 73 3c 2c 0d a1 3e c0 e3 6d bc
       0.041881077 0.014863218 0.31455362 -0.014519632
000020 1f 7b 55 3e 40 c4 f0 3c e3 54 3a bd 1d 2d 05 3e
       0.20847748 0.029390454 -0.04549111 0.1300549
000030 6a 24 39 3e 45 3b e4 bd 62 1e 85 3d ac d1 45 3d
       0.18080297 -0.11144117 0.06499936 0.04829566
000040 c8 42 31 bc 83 cd 5f 3e 81 9c e2 bd 66 ec 59 3c
       -0.010819145 0.2185574 -0.11065007 0.013300991

fc2.weight f4 [10, 20]
000000 6a bf f5 be a7 ac 1c bf e5 91 3a bf 59 d4 78 3e
       -0.479976 -0.61200947 -0.7287887 0.24299754
000010 83 2b 5e bf a6 77 7c 3e f9 5f 34 bf 35 4a 1e bf
       -0.86785144 0.24655017 -0.7045894 -0.6183198
000020 40 be 97 3d 91 ca fb be fe 5c 8a 3e 38 4e ab be
       0.07409334 -0.49177983 0.27024072 -0.33458114
000030 10 1e 48 bf 9d 0a 87 3e 01 8e 7e 3e 19 c7 a6 3e
       -0.7817087 0.26375285 0.24858858 0.32573774
000040 62 04 36 bf 2d 46 fe be 74 21 19 bf 01 08 05 bf
       -0.7110044 -0.49662915 -0.5981667 -0.5196534
000050 3c d7 17 bf c7 f0 d4 3e 40 73 1e bf b7 c6 47 bf
       -0.59312797 0.4158995 -0.6189461 -0.7803759
000060 d0 8c 99 3e 0c 0f e4 be e8 18 4e 3e 88 10 8b be
       0.29990244 -0.4454273 0.20126688 -0.2716105
000070 e2 14 3d bf dd c1 03 bf d7 0a 12 bf ef 3d 97 be
       -0.7385999 -0.51467687 -0.5704779 -0.2953944
000080 2e 11 53 3e 8a 93 40 bf 08 ff 02 3e cb 85 06 bf
       0.20612022 -0.75225127 0.12792599 -0.525479
000090 b0 23 99 3e 7f 34 90 3e 22 99 96 3e 03 63 8c 3e
       0.2991004 0.2816505 0.29413706 0.2741929
0000a0 b8 ed e0 3d f8 60 68 be 3f a6 df be 45 47 fb bd
       0.10982841 -0.2269324 -0.43681523 -0.12269453
0000b0 07 70 8a be 6c 89 d8 3d 80 96 18 bf e6 f5 be 3e
       -0.27038595 0.10573086 -0.59604645 0.3729698
0000c0 7f 05 57 be 74 0d 16 bf 75 c9 3c 3e dd 03 b6 3e
       -0.2099819 -0.5861428 0.18436225 0.35549822
0000d0 d0 77 1f bf f6 e3 2c be 73 e8 49 be 16 43 75 3e
       -0.62292194 -0.16883835 -0.19717579 0.23951373
0000e0 4d d8 cc 3d 2e 2d a5 3e 72 ce ab 3e c8 94 b3 3e
       0.100021936 0.32261032 0.33555943 0.3507445
0000f0 96 f7 70 be 3c 8b f3 be 2f 7f 52 bd 54 e9 f2 be
       -0.23531947 -0.47567165 -0.051390823 -0.4744364
000100 f4 f0 bb be a1 93 40 3e 65 00 c2 3d 3d 75 a0 3e
       -0.3670727 0.18806316 0.094727315 0.31339446
000110 ba 6d b0 be 8d 70 cc 3e 1d e4 b1 be f5 6e 01 be
       -0.34458715 0.3992962 -0.3474435 -0.12639983
000120 ff 22 a4 3e 30 8d e5 be 78 12 42 3e 1f 9b 91 3e
       0.3205795 -0.4483428 0.18952358 0.2843866
000130 52 34 19 bd 06 59 be be 33 af 76 3e 03 95 8c 3e
       -0.037403412 -0.37177294 0.2409027 0.27457437
000140 95 c0 81 3e 9f 85 da 3a 45 5e 46 3e 3d fc 1f 3e
       0.2534224 0.0016671902 0.19371898 0.15623565
000150 bf 4c b0 3e 54 05 5c bf b7 ac 85 3e b8 d7 87 3e
       0.34433553 -0.8594563 0.26108333 0.26531768
000160 24 26 5b 3e c5 c5 09 bf a1 57 85 3d 94 48 d0 be
       0.21401268 -0.538174 0.065108545 -0.40680373
000170 7a 94 2a 3e 58 b1 a6 3b 92 07 23 bf 4b a2 36 bf
       0.16658202 0.005087059 -0.63683426 -0.7134139
000180 69 e1 0f bf b2 b8 e0 be 8c d2 1b bf a6 6d 03 bf
       -0.56203324 -0.4389091 -0.60868144 -0.51339185
000190 be 43 19 bf 3a 41 7e 3d bd 30 cd 3d af 4b 07 3e
       -0.5986899 0.062073924 0.10019062 0.13212465
0001a0 68 f2 a0 be 39 a0 30 3e 9f a1 fc bc a1 b5 0b be
       -0.3143494 0.1724862 -0.030838786 -0.13643505
0001b0 8e 35 a6 be f1 bf cf 3e f6 49 24 3e 18 e3 bc 3e
       -0.32462734 0.40576127 0.16043839 0.3689201
0001c0 62 be a8 3e 15 9f af 3d 7e 61 22 3e 87 e8 26 be
       0.3295775 0.08575264 0.15857503 -0.1629964
0001d0 03 ed 7e be 53 c0 d0 bd 09 69 52 be ba 6a c3 be
       -0.248951 -0.10192933 -0.2054788 -0.38167363
0001e0 2e 70 9e be 7a d9 fe 3e 7b 17 cb 3d 9f c8 60 3e
       -0.3094496 0.49775296 0.09916588 0.21951531
0001f0 f0 b8 17 bf 18 ec d9 be 4d 8c 33 bf 14 4d d8 3d
       -0.5926657 -0.42562938 -0.70135957 0.105615765
000200 55 26 51 3e 81 bc 11 3d 7d 25 71 3e 37 fb de be
       0.20424779 0.035580162 0.23549457 -0.43551037
000210 eb f7 01 bf 96 80 44 3e ed 08 ff be c2 25 6e be
       -0.5076892 0.19189677 -0.49811497 -0.23256591
000220 42 9f 91 3d 87 17 a2 3e a4 f3 b7 be 3c 01 94 3e
       0.07110454 0.31658575 -0.3592807 0.28907192
000230 6f b7 88 3e b9 ce c8 be 94 80 0b bf 74 de fc be
       0.2670245 -0.39220217 -0.5449307 -0.49388468
000240 d1 87 90 bd b7 2c 13 3e 7d ce a7 3e ee 72 e7 be
       -0.07057155 0.14372526 0.32774726 -0.45204872
000250 6f 49 8a 3e 7e 14 a8 be f7 b3 20 bf e9 e1 f7 3e
       0.2700915 -0.32828134 -0.62774605 0.48414543
000260 c8 3f cd be a6 5e e5 be e3 75 01 bf bf 6b 9f 3e
       -0.40087724 -0.44798774 -0.50570506 0.3113689
000270 cb 8e 8c 3e 83 a2 fd be 2c fc bb bd 88 ee a3 3b
       0.27452692 -0.4953805 -0.09178957 0.0050028004
000280 da 3d 63 be 1f d1 77 be 02 c3 36 3e d0 65 a6 be
       -0.22191563 -0.24200867 0.17847827 -0.32499552
000290 49 c0 83 3e 69 13 21 3e c0 e2 39 be bc 5c 95 3d
       0.2573264 0.1573006 -0.18152905 0.07293078
0002a0 50 06 c4 be 90 4a a4 be 1d 98 42 3e 2c 57 ff 3c
       -0.38286066 -0.32088137 0.19003339 0.031169496
0002b0 93 03 db 3d 10 15 5f 3e f9 f9 0d 3e 03 18 2f be
       0.10694041 0.21785378 0.13864888 -0.17099003
0002c0 5d 2a 8f 3e f9 a8 b2 be b9 9a 8c 3e a6 ca 08 bd
       0.27962008 -0.3489454 0.27461794 -0.033396386
0002d0 ea f8 7a 3e 9c cf 1d bf 76 f9 dd 3d 9f 70 fd be
       0.24509016 -0.6164491 0.108385965 -0.49499986
0002e0 ad a3 b6 3e 6d 18 93 be 2d ec a4 3e 82 53 21 bf
       0.3567175 -0.28729573 0.32211438 -0.6301805
0002f0 37 2b 6a 3e cc d6 86 3e 82 17 4b be 66 a2 e6 be
       0.22868048 0.26335752 -0.19833186 -0.45045775
000300 d9 7f 82 be 3a 41 2a 3e 2f ef a8 be 2f 5e 4c 3e
       -0.25488165 0.16626444 -0.32994983 0.19957803
000310 5d ad 07 3e 7d 53 33 bf 49 d0 d5 be bb 7f 1d bf
       0.13249727 -0.7004927 -0.4176047 -0.61523026

fc2.bias f4 [10]
000000 4f c6 85 3e 71 1f 6c 3e a4 f3 7f be 21 da 5e be
       0.2612786 0.23058869 -0.24995285 -0.21762897
000010 0d 7c fd 3d 36 68 cf bb ef c6 ba be 2d b1 38 3d
       0.123771764 -0.0063295616 -0.364799 0.045090843
000020 73 7c 8e be aa d6 bc 3d
       -0.27829322 0.092206314
