save_model/kd_Student_21_0.9165999889373779.pth (torch, 65183 bytes, 4 tensors)

fc1.weight f4 [20, 784]
00000000: fc23 0b3c a401 7b3c 18d7 0b3c c70d 08bd
00000010: a5d6 afbc 631b f9bc bcee 213c 67ee 0fbd
00000020: b436 3f3c a4f9 0e3c e634 7ebc 51a5 0c3d
00000030: 9397 57bd 6e2e 95bc 8053 fa3c 65bf fe3b
00000040: 0e4f e7bc 12a0 59bc 7005 283c 020d df3c
00000050: 5ad4 c0bc 0ac6 08bc e255 b03c 679a 10bd
00000060: a42a e3bb 439b 08bd 034e 113d ceb4 99bc
00000070: 6a4e f93c 740f 803c 9443 6b3c e04d 263c
00000080: ea86 57bd c063 62bd 9dc8 e5bd 7a1c 15be
00000090: bad1 0bbe ac15 24be 204f 3dbe 9ba7 73be
000000a0: c4df 54be 4c82 54be 2a2b 11be 91ef 02be
000000b0: 3bcb 8dbd e125 29be ea59 15be 8747 25be
000000c0: f786 1bbe 6de4 96bd 30d0 cfbd b324 97bd
000000d0: 76cb e33c c2c9 bb3c be05 c03c d0b4 a13b
000000e0: 2c0a 8dbc 781f ca3c 92c6 16bd 8400 2ebd
000000f0: 34e8 69bd 09ae 62bd 90c6 06be af6b 43be
00000100: d661 82be cff9 85be 1365 bfbe 1c8d d5be
00000110: fc8d d9be 263a eebe cc9d b7be 77cb a8be
00000120: 22bb 9fbe f90e 6abe 2547 81be 10c0 8fbe
00000130: 6e54 59be 6818 37be 6323 32be c968 09be
00000140: f9cf 07bd 0259 c4bc d063 67bb 100a 893c
00000150: cea3 35bc b0b2 023c 2492 7e3d fc2c 71bd
00000160: 63cf b6bd aa0f 26bd 4575 03be 7fb9 53be
00000170: 661f 3cbe f329 2bbe d895 3ebe edc6 6cbe
00000180: 5812 7cbe 7357 61be 88c7 3ebe 1c4d 3fbe
00000190: c39f 0cbe a731 bebc e6d3 86bd 66db 1ebd
000001a0: 2f93 b1bd f6ea 42bd ed96 33bd a7a4 39bd
000001b0: 5f53 23bd 5c06 c33c c0e5 76bc 2686 6dbc
000001c0: 3a7c 07bd cfdc b03c db57 1e3d 6ccc bebc
000001d0: 9c1f 4b3c 2458 82bd bc6b 7bbd 0e03 283c
000001e0: 5fbd 55bd c41e 8739 07fa d3bc 00fe 3d3d
000001f0: 0b63 3d3d ade3 d03c 870e 9a3b 5a32 22bb
00000200: b146 2a3d d9ab 4d3d c17a b93c 11d9 f8ba
00000210: fe21 49bc b666 90bc 19b5 40bc 3f2e 50bc
00000220: 3309 d83c 93f6 aabc cc4e d7bc e900 f5bc
00000230: c042 933b 88bf d53c 690a a2bc 7ead bd3b
00000240: 5a3e 9d3c 2880 703c 9321 9b3d fc92 753d
00000250: 109f d43d 214f 923d 573d 413d 299e 3c3d
00000260: 20cb 263b 4677 8abd 7969 1abc c34e b63c
00000270: eadc 3a3c 0538 bb3c 2da7 50bc f67e 12bd
00000280: 41db 28bc 739c 503c 8e03 e23c 3135 b33d
00000290: 437e f53d f041 dc3d 9af4 e43c 08f9 633c
000002a0: e801 3b3c 8ded d9bc 72d0 573d c744 e9bb
000002b0: 542d 9e3d 2d02 a53d 818f 3f3d f6d7 713d
000002c0: 1c48 0e3d 3dbe 4b3d 51e8 8dbb e8c3 7cbc
000002d0: bb55 cfbd 7c36 8bbd b588 afbd 5b11 23bd
000002e0: 55bc 87bd fb14 57bd 9d88 20bd dc04 a6bd
000002f0: bf26 42bd 6e31 47bd fd32 a93a 1a57 91bc
00000300: 0f9e 90bc 4880 a8bc 737a 393c 6b04 2e3b
00000310: 1dcc 223c 7960 e93c ab2b 523e d4e5 5b3e
00000320: 6cc5 9b3d e835 b03d 5136 a03d 3640 453d
00000330: efd3 093c a995 3d3d a43b 483c 05f7 053c
00000340: 5333 7fbd ae87 9fbc 9dd9 b0bd 56f7 dbbd
00000350: f33e 82bd 4f7d 35bd 8b71 23bd c86e 0abc
00000360: 74ad fcbc 1679 58bd cb5b 3ebd dbb3 a8bd
00000370: 17de 37be 717d 0dbe 7500 aebc 105d b9bd
00000380: c5d6 8cbd 5a18 503e 772d 843e c328 4e3e
00000390: 7b35 2e3e b310 ce3d 991e 903d 18d9 9f3c
000003a0: 633c a43d d0e1 b23d de94 8a3d f763 593d
000003b0: 8161 343d aa15 763c 714a 32bc f4fc 89bd
000003c0: 2cba 00bd 8557 a8bc 1367 333c 87bc 333c
000003d0: f3a8 f8bc 0622 a6bc b171 debd 7eb8 29be
000003e0: 30d8 66be 39d1 41be 2069 cdbd 8b68 72bd
000003f0: 5579 b73d 612f 2b3e 6775 553e 6dea 473e
0.008492466 0.015320215 0.008535169 -0.033216264 -0.021464655 -0.030408567 0.009883579 -0.035139468
0.011670757 0.008726511 -0.015515542 0.034337346 -0.052634787 -0.018210616 0.030557394 0.007774281
-0.028235938 -0.013282793 0.010255203 0.027227882 -0.023538757 -0.008347997 0.021525327 -0.0353035
-0.0069325734 -0.033351194 0.03547479 -0.018762972 0.030432899 0.015632369 0.014359374 0.010150403
-0.0526189 -0.05527091 -0.112199046 -0.14561644 -0.13654223 -0.16023892 -0.18487215 -0.23794405
-0.20788485 -0.2075283 -0.14176622 -0.127867 -0.06923529 -0.16518356 -0.1458508 -0.16140567
-0.15188204 -0.073677875 -0.101471305 -0.07380047 0.027806979 0.022923354 0.023440238 0.0049348846
-0.017216764 0.024673209 -0.036810465 -0.04248096 -0.05710621 -0.055341754 -0.13161683 -0.19084047
-0.25465268 -0.2616715 -0.373818 -0.4170922 -0.42491138 -0.4652874 -0.35862577 -0.3296773
-0.31197459 -0.22857274 -0.2524959 -0.2807622 -0.21223614 -0.17880404 -0.17396311 -0.13418879
-0.033157323 -0.023968223 -0.0035307296 0.016728431 -0.011086417 0.007977173 0.06215109 -0.05888079
-0.089262746 -0.040542282 -0.12837704 -0.2067623 -0.18371353 -0.16715221 -0.18611848 -0.23122759
-0.24616373 -0.22006015 -0.18630803 -0.18681759 -0.1373282 -0.023217035 -0.06583385 -0.038783453
-0.08670651 -0.047587357 -0.043845106 -0.04532304 -0.03987443 0.023806743 -0.015069425 -0.0144973155
-0.033077456 0.021589665 0.038658004 -0.023290835 0.012397673 -0.06364468 -0.06138204 0.010254635
-0.05218255 0.0002577213 -0.025876058 0.04638481 0.046237033 0.02549919 0.004701439 -0.002474925
0.041571323 0.050212715 0.022641541 -0.0018985589 -0.012276171 -0.017627101 -0.011761927 -0.012706338
0.026371574 -0.020869529 -0.02628269 -0.02990766 0.004494041 0.026092306 -0.019780355 0.005788504
0.01919477 0.014678992 0.07574763 0.05995463 0.10381901 0.07143999 0.04717764 0.04604927
0.0025450662 -0.06761031 -0.009424561 0.022254353 0.011405209 0.02285386 -0.01273517 -0.03576561
-0.01030618 0.012732613 0.027589586 0.0875038 0.11986973 0.10754764 0.027948666 0.013914354
0.011414029 -0.02660253 0.052689023 -0.0071187946 0.077234894 0.080570556 0.046767715 0.059043847
0.034736738 0.049741972 -0.004330673 -0.015427567 -0.10123774 -0.067975014 -0.08570997 -0.039811473
-0.06627718 -0.052510243 -0.039192785 -0.081063956 -0.047400232 -0.048631124 0.0012908872 -0.017741729
-0.017653493 -0.020568982 0.011320698 0.0026552926 0.00993636 0.028488385 0.2052447 0.21474391
0.076060146 0.08604032 0.0782286 0.04815694 0.008412345 0.046285305 0.012221251 0.00817657
-0.062304806 -0.019473877 -0.086352564 -0.10740535 -0.06359663 -0.044308957 -0.039903205 -0.008449264
-0.030844428 -0.05284985 -0.04647426 -0.0823743 -0.17955814 -0.13817383 -0.021240452 -0.090509534
-0.068769015 0.2032179 0.25815937 0.20132737 0.17012589 0.10061779 0.07037086 0.019512698
0.0801933 0.087344766 0.067666754 0.05307385 0.0440383 0.015019814 -0.010882006 -0.067377
-0.031427547 -0.020549545 0.010949868 0.010970241 -0.030353999 -0.020279896 -0.10861529 -0.16574284
-0.22543406 -0.18927468 -0.10029817 -0.05918173 0.08958689 0.16717292 0.20845567 0.1952302

fc1.bias f4 [20]
00000000: c3ff 173e a682 793e b676 07be 5ae4 bc3e
00000010: 9397 43bc d731 77bb c971 e13e 4088 53bd
00000020: e18e 853e 0ab1 58bc 1bdc 64bd 49e6 223e
00000030: 737a 5d3e dfd3 3abe 36dd 4a3d 2c7b 8d3d
00000040: 0c6f 29bd e77d 8c3e 793b 70be 7808 1c3c
0.14843659 0.24366245 -0.13228878 0.36892968 -0.011937994 -0.0037718916 0.44032124 -0.05164361
0.2608557 -0.013225803 -0.05587397 0.1590816 0.21628742 -0.18244885 0.04952737 0.06908259
-0.04136567 0.27439806 -0.23460187 0.0095235035

fc2.weight f4 [10, 20]
00000000: 2083 2bbf 9924 6cbf 1e39 86bf a50a b53e
00000010: be0a a5bf 9f4b 8a3e 1e62 8bbf 3cf3 56bf
00000020: 7e72 893b 701c 7cbf d829 9d3e c238 30bf
00000030: 8992 a0bf 739e a63e 133a 923e 853d d73e
00000040: 4cba 86bf 24fe 5bbf 90c8 5cbf bf90 42bf
00000050: 3789 7bbf bc3a 103f b864 51bf 4baf afbf
00000060: 4e65 ae3e 22cb 2abf e643 4e3e 6626 04bf
00000070: 9a85 94bf 478f 45bf f627 5bbf 8d6b e5be
00000080: fce0 803e 71bd 8ebf f9df b43d f255 42bf
00000090: 46aa b53e 8b53 c63e 5168 b43e 0ec8 a43e
000000a0: 4ee7 ee3d b626 c1be 47f9 1fbf 035c 1fbe
000000b0: 476e b2be 356b 0f3e 08ba 75bf 00f9 e33e
000000c0: f5ad c3be 0070 74bf f75c 583e 7482 f53e
000000d0: e21a 71bf 5b96 39be 5dbf 42be d1cd 953e
000000e0: cd70 113e 34ed e83e 36ea cc3e 4969 db3e
000000f0: c179 9dbe de99 4dbf 3f72 adbd 153e 2fbf
00000100: ce4c f3be 6d9a 633e fb14 e73d 9ad4 b83e
00000110: 6412 0abf 04f8 0f3f 6a89 05bf cf25 c9bd
00000120: 0196 c43e 42b3 1cbf ec9a 5e3e 3fb7 a93e
00000130: 6063 71bd 7793 0bbf 5cbe 993e 8b6f b23e
00000140: 38a9 a83e ba15 93bd 7917 7f3e 03b7 543e
00000150: e782 d93e b58f a7bf fc10 a53e e943 9d3e
00000160: 852b 963e 465c 3cbf 1759 d23d 8772 47bf
00000170: f405 293e 2b4d 86bc fab7 8bbf 5960 90bf
00000180: 29c7 3fbf 630e 28bf a32c 80bf d13c 54bf
00000190: 39b4 6bbf c461 333e 6c85 1c3e d816 443e
000001a0: 69a1 efbe 74f8 423e d7b9 35bd 3857 40be
000001b0: 8ea5 0fbf 6c9e 0d3f 3627 393e 344e d63e
000001c0: 9079 c63e 79bb eb3d a46d 533e 6181 82be
000001d0: b2e1 fcbe 9c8a 98be b036 9fbe 5aba 08bf
000001e0: 743f f2be 1c08 303f 6bfc f23d ddba 943e
000001f0: 5d57 5ebf 9093 25bf be42 adbf 43f0 873e
00000200: 8289 7e3e 146d dcbd 42e9 8b3e e695 3bbf
00000210: 0223 4abf bd8a 8e3e 5833 21bf 2137 21bf
00000220: ea74 433d 7e9d e33e 74fc 40bf c68f b63e
00000230: 7473 aa3e 3a29 22bf b24e 39bf 47f3 29bf
00000240: ee9f 97bd 2d0f 1d3e 8007 c63e 84d4 21bf
00000250: fc99 ae3e 7190 1fbf 34a5 77bf 016a 163f
00000260: c1a2 2bbf 3fec 2bbf d484 47bf aebf bd3e
00000270: f2f1 b03e 651c 3dbf f7fb 72bd d5cc 763c
00000280: a68a dcbe a05e 83be 993c 573e 9b67 f5be
00000290: 1b3b 9e3e d194 303e 47eb 81be 986e 3c3c
000002a0: 89f1 23bf cd71 05bf 3411 583e 88d8 143e
000002b0: 394c 4b3e 1a31 773e e95e 333e 9cfe 91be
000002c0: 9327 9a3e c9f3 e6be 1e93 9b3e 22fe 06be
000002d0: a29b a33e 8a1d 6fbf 15f5 2d3e 50cf 35bf
000002e0: 98fe d13e fb81 a1be e3ba bb3e d20c 5fbf
000002f0: 8e1f 9b3e cca0 993e c4f6 80be 5ae4 41bf
00000300: 51c1 4dbe 1395 223e 536a b8be 10b1 813e
00000310: a3ae 263e d6d2 a1bf df93 34bf bde1 97bf
-0.66996956 -0.92243344 -1.0486181 0.35359684 -1.2893903 0.2701082 -1.0889318 -0.83964896
0.0041945567 -0.9848089 0.30695987 -0.68836606 -1.2544719 0.32542762 0.28559932 0.42039123
-1.0525603 -0.8593466 -0.86243534 -0.76002115 -0.9825625 0.5633962 -0.8179431 -1.372537
0.34061664 -0.66716206 0.20143089 -0.5162109 -1.1603272 -0.7717175 -0.8560785 -0.44808617
0.2517165 -1.1151563 0.08831782 -0.7591239 0.3548147 0.38735613 0.35235837 0.3218388
0.116652116 -0.37724847 -0.6248974 -0.15562443 -0.3484976 0.1400574 -0.95986986 0.4452591
-0.38218656 -0.954834 0.21129213 0.4795109 -0.94181645 -0.18123762 -0.19018312 0.29258588
0.14203186 0.45493472 0.4002244 0.42853764 -0.30756953 -0.8031291 -0.08469056 -0.68454105
-0.47519535 0.22226878 0.112832986 0.36099702 -0.5393431 0.56237817 -0.521628 -0.098216645
0.38395694 -0.61211026 0.21738786 0.33147618 -0.058932662 -0.5452189 0.30028045 0.34850726
0.32941604 -0.071818784 0.24911298 0.20772938 0.42482683 -1.3090731 0.3223952 0.30715874
0.29330078 -0.735783 0.10270899 -0.7790913 0.16506177 -0.016394218 -1.091552 -1.1279403
-0.7491327 -0.6564695 -1.0013622 -0.829053 -0.9207187 0.17517763 0.15285271 0.19149339
-0.46802834 0.1904009 -0.044366684 -0.18783271 -0.5611199 0.5531986 0.18081364 0.4185654
0.3876462 0.11510367 0.20647293 -0.25489333 -0.49390942 -0.2979325 -0.3109641 -0.5340935
-0.47314036 0.68762374 0.11864551 0.29048815 -0.86852056 -0.6467829 -1.3535993 0.26550493
0.24857143 -0.107629925 0.273264 -0.732756 -0.7895967 0.27840224 -0.6296897 -0.62974745
0.04771892 0.44456095 -0.7538521 0.35656565 0.3329121 -0.63344157 -0.72385705 -0.66386837
-0.07403551 0.1533782 0.38677597 -0.632149 0.34101856 -0.62329775 -0.96736455 0.587555
-0.6704522 -0.6715736 -0.77937055 0.37060302 0.3455959 -0.7387145 -0.059322324 0.015063484
-0.4307453 -0.2565813 0.2101921 -0.47930607 0.3090447 0.17244269 -0.25374815 0.011500977
-0.6404043 -0.5212677 0.21100312 0.14535725 0.19853295 0.24139825 0.17516674 -0.28514564
0.30108318 -0.45107868 0.3038568 -0.13182881 0.31954676 -0.9340445 0.16988023 -0.7101946
0.41014552 -0.3154448 0.3666602 -0.8712894 0.30297512 0.3000549 -0.25188267 -0.7573906
-0.20093276 0.1587718 -0.3601862 0.253304 0.16277556 -1.2642467 -0.70538133 -1.1865765

fc2.bias f4 [10]
00000000: 94b2 763e 601e c43e 3c63 d4be 89bb 92be
00000010: e406 c03d 6e7d 3e3d 2a2d 03bf db54 013d
00000020: 9ccc 59be c92f 7b3e
0.2409156 0.38304424 -0.4148196 -0.28658703 0.09376314 0.046506338 -0.5124079 0.031575065
-0.21269459 0.24529947
