save_model/kd_Student_31_0.9197.pth (torch, 65183 bytes, 4 tensors)

fc1.weight f4 [20, 784]
0	0x3c0b23fc	0.008492466
1	0x3c7b01a4	0.015320215
2	0x3c0bd718	0.008535169
3	0xbd080dc7	-0.033216264
4	0xbcafd6a5	-0.021464655
5	0xbcf91b63	-0.030408567
6	0x3c21eebc	0.009883579
7	0xbd0fee67	-0.035139468
8	0x3c3f36b4	0.011670757
9	0x3c0ef9a4	0.008726511
10	0xbc7e34e6	-0.015515542
11	0x3d0ca551	0.034337346
12	0xbd26c4e8	-0.04071513
13	0xbbbde9c1	-0.005795688
14	0x3d300451	0.042972866
15	0x3ca154d3	0.019693768
16	0xbce74f0e	-0.028235938
17	0xbc59a012	-0.013282793
18	0x3c280570	0.010255203
19	0x3cdf0d02	0.027227882
20	0xbcc0d45a	-0.023538757
21	0xbc08c60a	-0.008347997
22	0x3cb055e2	0.021525327
23	0xbd109a67	-0.0353035
24	0xbbe32aa4	-0.0069325734
25	0xbd089b43	-0.033351194
26	0x3d114e03	0.03547479
27	0xbc99b4ce	-0.018762972
28	0x3cf94e6a	0.030432899
29	0x3c800f74	0.015632369
30	0x3c6b4394	0.014359374
31	0x3c264de0	0.010150403
32	0xbd5786ea	-0.0526189
33	0xbd825b07	-0.06365018
34	0xbe0cf4e6	-0.13765296
35	0xbe2ff835	-0.17184527
36	0xbe255744	-0.1614657
37	0xbe3d4dec	-0.18486756
38	0xbe594a7a	-0.21219817
39	0xbe8abeb2	-0.27098614
40	0xbe7d4821	-0.24734546
41	0xbe757b5e	-0.23972842
42	0xbe1eafa8	-0.15496695
43	0xbe10bf27	-0.14135419
44	0xbda3d754	-0.08000055
45	0xbe4252ee	-0.18976948
46	0xbe2c2abb	-0.16813175
47	0xbe378362	-0.17921212
48	0xbe2c8cbd	-0.16850562
49	0xbdab57d0	-0.08366358
50	0xbde145e8	-0.10999662
51	0xbda74b0b	-0.0816861
52	0x3ce3cb76	0.027806979
53	0x3cbbc9c2	0.022923354
54	0x3cc005be	0.023440238
55	0x3ba1b4d0	0.0049348846
56	0xbc8d0a2c	-0.017216764
57	0x3cca1f78	0.024673209
58	0xbd16c692	-0.036810465
59	0xbd655c18	-0.05599603
60	0xbd9169a5	-0.07100228
61	0xbd8231d4	-0.0635716
62	0xbe1c3e89	-0.1525823
63	0xbe63cce8	-0.22246134
64	0xbe982cf1	-0.29721788
65	0xbe9e5f83	-0.30932245
66	0xbedc6188	-0.4304316
67	0xbef56a1a	-0.47932512
68	0xbefa1fcb	-0.4885238
69	0xbf06ceb6	-0.52659166
70	0xbecd2239	-0.40065172
71	0xbeb6b820	-0.3568735
72	0xbeac6b52	-0.3367563
73	0xbe76f808	-0.24118054
74	0xbe8cadf6	-0.27476472
75	0xbe9cfe1c	-0.3066262
76	0xbe70578c	-0.23470896
77	0xbe4cd627	-0.20003568
78	0xbe41212b	-0.18860309
79	0xbe107963	-0.14108805
80	0xbcba4c04	-0.022741325
81	0xbcc45902	-0.023968223
82	0xbb6763d0	-0.0035307296
83	0x3c890a10	0.016728431
84	0xbc35a3ce	-0.011086417
85	0x3c02b2b0	0.007977173
86	0x3d90c939	0.0706963
87	0xbd9e9f1e	-0.07745193
88	0xbde4ad95	-0.11165921
89	0xbd35af33	-0.044356536
90	0xbe17cbe5	-0.14823873
91	0xbe79ff00	-0.24413681
92	0xbe6f769a	-0.23385087
93	0xbe54c7e2	-0.20779374
94	0xbe60c7ec	-0.21951264
95	0xbe87935a	-0.26479608
96	0xbe8e1949	-0.27753666
97	0xbe80f716	-0.25188512
98	0xbe4f436c	-0.20240563
99	0xbe58421f	-0.21118973
100	0xbe1d8f6a	-0.1538674
101	0xbcb3d245	-0.02195085
102	0xbd8119b5	-0.06303731
103	0xbd2f4136	-0.0427868
104	0xbdd67e29	-0.10473282
105	0xbd7b1a79	-0.061304543
106	0xbd411516	-0.04713925
107	0xbd364f90	-0.04450947
108	0xbd2b3d2c	-0.041806385
109	0x3cea78c1	0.028622033
110	0xbc76e5c0	-0.015069425
111	0xbc6d8626	-0.0144973155
112	0xbd077c3a	-0.033077456
113	0x3cb0dccf	0.021589665
114	0x3d514365	0.051089663
115	0xbd00c728	-0.03143993
116	0x3c519b76	0.012793412
117	0xbdb30dea	-0.08742888
118	0xbdbbdcbd	-0.09172962
119	0xbca2aaed	-0.019856894
120	0xbd973590	-0.07383263
121	0xbc097999	-0.008390808
122	0xbcee0076	-0.029052954
123	0x3d3a5496	0.045490824
124	0x3d3a51fd	0.045488346
125	0x3cb982d5	0.022645393
126	0xbb68e16b	-0.003553475
127	0xbc5e8949	-0.013582536
128	0x3d289a21	0.041162614
129	0x3d6904fe	0.056889527
130	0x3d0875a1	0.033315305
131	0x3b6a4aeb	0.003575022
132	0xbc3365b5	-0.010949542
133	0xbc34a159	-0.011024796
134	0xbb758f19	-0.0037469326
135	0xbc88aacd	-0.016683007
136	0x3ca01bc3	0.019544488
137	0xbcc8e51e	-0.024523314
138	0xbcda7e83	-0.026671654
139	0xbcf500e9	-0.02990766
140	0x3b9342c0	0.004494041
141	0x3cd5bf88	0.026092306
142	0xbcd6e8e0	-0.02623409
143	0xbbe1be93	-0.0068891733
144	0x3c8acdd0	0.016943842
145	0x3c43a62b	0.011941473
146	0x3d8f6168	0.07001001
147	0x3d566d6f	0.052350458
148	0x3dee0d53	0.11623635
149	0x3dab11d6	0.08353011
150	0x3d515b7a	0.05111263
151	0x3d2de9f4	0.042459443
152	0xbc6de818	-0.0145206675
153	0xbdaad631	-0.08341635
154	0xbc85032a	-0.01623686
155	0x3cb655b7	0.022257669
156	0x3b81d4fd	0.0039621578
157	0x3c8dfb94	0.017331876
158	0xbc746e2d	-0.014918846
159	0xbd2a14e9	-0.041523848
160	0xbbd02b08	-0.006352786
161	0x3cdbef55	0.02684752
162	0x3d19f5cd	0.03758793
163	0x3dc54936	0.096331045
164	0x3e046dc9	0.12932505
165	0x3e016bc2	0.12638763
166	0x3ce6e96d	0.028187478
167	0x3c63f908	0.013914354
168	0x3c3b01e8	0.011414029
169	0xbcac9b9c	-0.021070294
170	0x3d52f033	0.051498603
171	0xbbfcd936	-0.0077163232
172	0x3dad511f	0.08462738
173	0x3da8148a	0.082070425
174	0x3d300784	0.042975917
175	0x3d4ef8b8	0.050530165
176	0x3d04aa4e	0.032388978
177	0x3d5d3436	0.05400487
178	0xbb8b571a	-0.0042523267
179	0xbd040a23	-0.03223623
180	0xbdfebdbd	-0.124385335
181	0xbdc0ed9a	-0.09420319
182	0xbdd7cd64	-0.10537222
183	0xbd6cd525	-0.057820458
184	0xbd9f90b9	-0.077912755
185	0xbd5be367	-0.053683665
186	0xbd173783	-0.036918174
187	0xbdaa372e	-0.08311306
188	0xbd323fa4	-0.043517724
189	0xbd01be52	-0.031675644
190	0x3c600251	0.013672427
191	0xbc054562	-0.008134218
192	0xbbe0ec05	-0.006864073
193	0xbc803687	-0.015651
194	0x3c10dbd6	0.0088414755
195	0x3b2e046b	0.0026552926
196	0x3c79e337	0.015251926
197	0x3d04959a	0.032369234
198	0x3e735028	0.23761046
199	0x3e842f6b	0.25817427
200	0x3dbf4235	0.093388
201	0x3dccac9e	0.099938616
202	0x3da95cd6	0.0826966
203	0x3d13fd5f	0.036130305
204	0xbbb59dad	-0.005542478
205	0x3d3e50a4	0.046463624
206	0x3c68a8f2	0.014200436
207	0xbaf996c0	-0.0019042119
208	0xbd970367	-0.07373696
209	0xbcfec952	-0.031101856
210	0xbdcf6d77	-0.10128301
211	0xbdf2eb4e	-0.11861287
212	0xbd80ec11	-0.06295026
213	0xbd1ca323	-0.038241517
214	0xbcfec31c	-0.031098895
215	0x3ab1f037	0.0013575618
216	0xbc9dfe64	-0.019286342
217	0xbd3c476e	-0.04596656
218	0xbd23f4f3	-0.040028524
219	0xbdadfa56	-0.084950134
220	0xbe37fd72	-0.17967775
221	0xbe1e6cfb	-0.1547126
222	0xbbb7c0d4	-0.0056077037
223	0xbdd205e6	-0.10255031
224	0xbdadf77b	-0.08494469
225	0x3e75363f	0.23946474
226	0x3ea003e7	0.31252977
227	0x3e77daae	0.24204513
228	0x3e5599e9	0.20859493
229	0x3df2b39c	0.11850664
230	0x3d8ffee0	0.070310354
231	0x3b8ca9d2	0.004292705
232	0x3d8cd7a8	0.06877071
233	0x3db1e6c4	0.08686593
234	0x3d962e2d	0.07333026
235	0x3d54c129	0.051942024
236	0x3d30cc19	0.043163393
237	0x3c6eacbb	0.014567549
238	0xbcbdd222	-0.023171488
239	0xbda67f1d	-0.08129714
240	0xbd36ffc7	-0.044677522
241	0xbc7a8364	-0.015290115
242	0x3cccffa2	0.025024239
243	0x3c816ad3	0.015798008
244	0xbd0855cb	-0.033284944
245	0xbcb29665	-0.02180023
246	0xbdf843b0	-0.12122285
247	0xbe35bafa	-0.17747107
248	0xbe749d4a	-0.23888126
249	0xbe498b0f	-0.19681953
250	0xbdc0a28a	-0.09406002
251	0xbd947f93	-0.07250895
252	0x3ddd38e4	0.10801867
253	0x3e47ae48	0.19500077
254	0x3e74cecd	0.23907013
255	0x3e738028	0.23779356

fc1.bias f4 [20]
0	0x3e22f827	0.15914975
1	0x3e8472c0	0.25868797
2	0xbe1f7b30	-0.15574336
3	0x3ed1f2e4	0.41005623
4	0xbd27db18	-0.04098043
5	0xbc2b6f15	-0.010463496
6	0x3efbfb0f	0.4921498
7	0xbd6ab179	-0.057298157
8	0x3e8ae20e	0.2712559
9	0xbd231551	-0.03981525
10	0xbd6c5bb5	-0.057704646
11	0x3e22d5c6	0.1590186
12	0x3e603592	0.21895435
13	0xbe5e2d2d	-0.2169692
14	0x3d27cde1	0.040967826
15	0x3d9998d8	0.07499856
16	0xbd71e0c0	-0.05905223
17	0x3e95a35c	0.29226196
18	0xbe9108bb	-0.28326973
19	0x3bc15c11	0.0059008677

fc2.weight f4 [10, 20]
0	0xbf375db5	-0.7162736
1	0xbf82ff08	-1.0234079
2	0xbf9321fc	-1.1494746
3	0x3ec825de	0.3909139
4	0xbfb6ea03	-1.4290165
5	0x3e89bc5f	0.26901528
6	0xbfa0e00f	-1.2568377
7	0xbf6350e5	-0.8879531
8	0xbd572ca5	-0.05253281
9	0xbf9a61a2	-1.2061045
10	0x3e9ddfa2	0.3083468
11	0xbf53beec	-0.827132
12	0xbfb8a428	-1.4425097
13	0x3eb1eefb	0.3475264
14	0x3e9a2c80	0.30112076
15	0x3ee16436	0.44021767
16	0xbf95c744	-1.1701436
17	0xbf8289f7	-1.0198354
18	0xbf73cdeb	-0.9523608
19	0xbf582053	-0.8442432
20	0xbf8e8de0	-1.1137047
21	0x3f1d40b3	0.6142685
22	0xbf64faef	-0.89445394
23	0xbfcb9d01	-1.5907289
24	0x3eb75e36	0.35814065
25	0xbf38807d	-0.7207106
26	0x3e4d7553	0.20064287
27	0xbf1c2a91	-0.6100245
28	0xbfa483c1	-1.2852708
29	0xbf6189a3	-0.8810064
30	0xbf748667	-0.9551758
31	0xbefc1603	-0.49235544
32	0x3e8abdef	0.27098033
33	0xbf9d9f3e	-1.2314222
34	0x3d8c8bc1	0.068625934
35	0xbf54f299	-0.83182675
36	0x3eba692a	0.3640836
37	0x3ed9d1b3	0.425428
38	0x3eb7121d	0.35756007
39	0x3eace60b	0.3376926
40	0x3df8638b	0.12128361
41	0xbee861ee	-0.45387214
42	0xbf2c6cdb	-0.673536
43	0xbe38cad2	-0.1804612
44	0xbebfb62e	-0.3744368
45	0x3e1b2ea6	0.15154514
46	0xbf8d281c	-1.1027865
47	0x3eeac45e	0.4585294
48	0xbeef3063	-0.46716604
49	0xbf8c3829	-1.0954639
50	0x3e6020b8	0.21887481
51	0x3f0414d1	0.51594263
52	0xbf885fee	-1.0654275
53	0xbe42b00b	-0.19012468
54	0xbe400dc6	-0.18755254
55	0x3ea1cae6	0.31600112
56	0x3e2fd302	0.17170337
57	0x3efee0a0	0.4978075
58	0x3ed7b162	0.4212752
59	0x3ee654e1	0.44986632
60	0xbea1f4e3	-0.31632146
61	0xbf72b6aa	-0.94809973
62	0xbdde5fa8	-0.10858089
63	0xbf4316c7	-0.7620663
64	0xbf010f02	-0.50413525
65	0x3e6dd5dd	0.23226114
66	0x3e0a8bf8	0.13529956
67	0x3ec2817a	0.37989408
68	0xbf1eb6c9	-0.6199766
69	0x3f1ee834	0.62073064
70	0xbf16b148	-0.5886426
71	0xbd99c232	-0.07507743
72	0x3ecd856a	0.4014085
73	0xbf29a1ae	-0.6626233
74	0x3e6bb792	0.23019245
75	0x3eaf4ce4	0.3423835
76	0xbd47af42	-0.048751123
77	0xbf203f3e	-0.625965
78	0x3ea03f36	0.31298226
79	0x3ec3040a	0.3808902
80	0x3eb5d6bf	0.355154
81	0xbe0fb2d4	-0.14033061
82	0x3e8916a2	0.2677508
83	0x3e76b7a2	0.24093488
84	0x3ee8024a	0.45314246
85	0xbfbd4880	-1.478775
86	0x3eaefc8b	0.3417705
87	0x3ea19f73	0.31566963
88	0x3ea34181	0.31885913
89	0xbf4f4793	-0.8096859
90	0x3df920d9	0.12164468
91	0xbf694af1	-0.91129977
92	0x3e26dd09	0.16295256
93	0xbd574d0f	-0.052563723
94	0xbfa14ef3	-1.2602218
95	0xbfa2b9f0	-1.2712994
96	0xbf542ae7	-0.82877964
97	0xbf3a9ed6	-0.72898614
98	0xbf9447ee	-1.1584451
99	0xbf70748b	-0.9392783
100	0xbf83895e	-1.0276296
101	0x3e7e1a00	0.24814606
102	0x3e2a002d	0.1660163
103	0x3e5721ea	0.21009031
104	0xbf08cef1	-0.5344077
105	0x3e4439a5	0.19162615
106	0xbd3414b4	-0.043965057
107	0xbe4b9462	-0.19880822
108	0xbf29853c	-0.66218925
109	0x3f1b8a7a	0.60758173
110	0x3e3fe29e	0.18738791
111	0x3eddd224	0.43324387
112	0x3ecdc988	0.4019282
113	0x3df83bfc	0.12120816
114	0x3e57e604	0.21083838
115	0xbe92d968	-0.28681493
116	0xbf154842	-0.5831338
117	0xbebde9dc	-0.37092483
118	0xbeb90d07	-0.36142752
119	0xbf16c8df	-0.58900255
120	0xbf0697ce	-0.52575386
121	0x3f3ef7e2	0.7459699
122	0x3e033762	0.12814096
123	0x3e9f9450	0.3116784
124	0xbf7b312a	-0.98121893
125	0xbf3a99b7	-0.728908
126	0xbfcd843d	-1.6055981
127	0x3ea84479	0.3286474
128	0x3e8eff5d	0.27929202
129	0xbe686b95	-0.2269729
130	0x3e93a1d9	0.28834417
131	0xbf53eb1a	-0.8278061
132	0xbf61f5b3	-0.8826553
133	0x3e9e1a08	0.30879235
134	0xbf29151c	-0.66047835
135	0xbf45c09b	-0.7724702
136	0x3d2454d8	0.040119976
137	0x3ef5744a	0.47940284
138	0xbf6c0fd4	-0.9221165
139	0x3ec02ab1	0.3753257
140	0x3eb2faad	0.34956875
141	0xbf3c21f2	-0.73489296
142	0xbf4d21fb	-0.80129975
143	0xbf3713e2	-0.71514714
144	0xbdb85a8a	-0.09001644
145	0x3e27ca5e	0.1638579
146	0x3ed08cc3	0.40732393
147	0xbf30ad21	-0.69014174
148	0x3ec06353	0.37575778
149	0xbf3cbc96	-0.7372526
150	0xbf8bf6e3	-1.0934719
151	0x3f1b4dd3	0.60665625
152	0xbf43bf85	-0.7646411
153	0xbf3f19f2	-0.74648964
154	0xbf6786ea	-0.9044024
155	0x3ec6fb08	0.38863397
156	0x3eb4046f	0.35159633
157	0xbf527e70	-0.8222418
158	0xbc9f60fb	-0.019455424
159	0x3cf4a9b6	0.02986608
160	0xbf0c8668	-0.5489259
161	0xbe862f30	-0.26207876
162	0x3e646fd9	0.22308291
163	0xbf0b8e72	-0.5451423
164	0x3ea78a50	0.32722712
165	0x3e2fb581	0.17159082
166	0xbe9eff4e	-0.31054157
167	0xbce9214c	-0.02845826
168	0xbf3deab9	-0.74186283
169	0xbf2297e5	-0.6351302
170	0x3e5f7a8d	0.21824093
171	0x3e40fdde	0.18846843
172	0x3e61ed93	0.22063284
173	0x3e827229	0.25477722
174	0x3e3ea71d	0.18618436
175	0xbea462bc	-0.32106578
176	0x3e9d2a26	0.3069622
177	0xbefa9531	-0.4894195
178	0x3ea36e5a	0.3192013
179	0xbe46c870	-0.19412398
180	0x3eadab3f	0.33919713
181	0xbf835c5a	-1.0262558
182	0x3e4213ad	0.18952818
183	0xbf4dd1fd	-0.8039854
184	0x3edbbd70	0.42917967
185	0xbe9cc368	-0.30617833
186	0x3ec0f11b	0.3768395
187	0xbf7e3425	-0.99298316
188	0x3ea383ed	0.3193659
189	0x3ea44f4f	0.32091758
190	0xbe86c66f	-0.26323268
191	0xbf640ad9	-0.8907905
192	0xbe291f86	-0.16515931
193	0x3e286ae0	0.1644702
194	0xbeb9b6ab	-0.36272177
195	0x3e896adb	0.26839337
196	0x3e2f15fd	0.17098232
197	0xbfbc4d9e	-1.4711187
198	0xbf5209d8	-0.8204627
199	0xbfb397cc	-1.40307

fc2.bias f4 [10]
0	0x3e6e879f	0.23293923
1	0x3edeca3b	0.43513665
2	0xbefcaa46	-0.49348658
3	0xbea2812b	-0.31739172
4	0x3da7ff08	0.0820294
5	0x3d807fff	0.06274413
6	0xbf0ede0c	-0.55807567
7	0x3c9d7a11	0.019223245
8	0xbe27f431	-0.16401745
9	0x3e9c2898	0.3049972
