save_model/kd_Student_1_0.917199969291687.pth (torch, 65183 bytes, 4 tensors)

fc1.weight f4 [20, 784]
000000 fc 23 0b 3c a4 01 7b 3c 18 d7 0b 3c c7 0d 08 bd
       0.008492466 0.015320215 0.008535169 -0.033216264
000010 a5 d6 af bc 63 1b f9 bc bc ee 21 3c 67 ee 0f bd
       -0.021464655 -0.030408567 0.009883579 -0.035139468
000020 b4 36 3f 3c a4 f9 0e 3c e6 34 7e bc 51 a5 0c 3d
       0.011670757 0.008726511 -0.015515542 0.034337346
000030 b0 28 2f bd c5 97 00 bc 51 04 30 3d d3 54 a1 3c
       -0.042763412 -0.007848685 0.042972866 0.019693768
000040 0e 4f e7 bc 12 a0 59 bc 70 05 28 3c 02 0d df 3c
       -0.028235938 -0.013282793 0.010255203 0.027227882
000050 5a d4 c0 bc 0a c6 08 bc e2 55 b0 3c 67 9a 10 bd
       -0.023538757 -0.008347997 0.021525327 -0.0353035
000060 a4 2a e3 bb 43 9b 08 bd 03 4e 11 3d ce b4 99 bc
       -0.0069325734 -0.033351194 0.03547479 -0.018762972
000070 6a 4e f9 3c 74 0f 80 3c 94 43 6b 3c e0 4d 26 3c
       0.030432899 0.015632369 0.014359374 0.010150403
000080 ea 86 57 bd 20 67 86 bd 7b f6 10 be b7 7e 34 be
       -0.0526189 -0.06562638 -0.14156525 -0.17626463
000090 5a 40 28 be 79 14 41 be ad 1a 5d be 0b 89 8d be
       -0.16430798 -0.18855466 -0.21592207 -0.27643618
0000a0 92 ae 81 be 9c df 7a be c0 17 22 be aa 2c 15 be
       -0.253285 -0.24499363 -0.15829372 -0.14567819
0000b0 ee 61 a7 bd 2a f8 45 be 14 ea 2d be 96 0e 3a be
       -0.081729755 -0.19332948 -0.16983825 -0.18169627
0000c0 53 89 2f be 2b 58 b1 bd 3a 27 e8 bd 3c 6e af bd
       -0.17142229 -0.08659395 -0.11335607 -0.085659474
0000d0 76 cb e3 3c c2 c9 bb 3c be 05 c0 3c d0 b4 a1 3b
       0.027806979 0.022923354 0.023440238 0.0049348846
0000e0 2c 0a 8d bc 78 1f ca 3c 92 c6 16 bd 0e b4 6d bd
       -0.017216764 0.024673209 -0.036810465 -0.05803304
0000f0 f1 93 95 bd fe 4e 86 bd c4 96 20 be 71 21 68 be
       -0.07303608 -0.06558035 -0.15682513 -0.22669007
000100 b3 ac 9a be d2 5e a1 be 19 82 e1 be 6b 98 fa be
       -0.30209884 -0.31517655 -0.4404457 -0.4894441
000110 52 d0 fe be 5a 4d 09 bf 89 59 d2 be 6e 17 ba be
       -0.4976831 -0.53633654 -0.41083935 -0.36346
000120 6a a9 ae be 2e b3 7c be 1b 44 90 be 99 15 a0 be
       -0.34113628 -0.24677727 -0.2817696 -0.31266478
000130 4f 52 71 be 79 53 4f be da 97 47 be 61 c4 15 be
       -0.23566554 -0.20246686 -0.1949152 -0.14625694
000140 c5 00 cc bc 02 59 c4 bc d0 63 67 bb 10 0a 89 3c
       -0.02490271 -0.023968223 -0.0035307296 0.016728431
000150 ce a3 35 bc b0 b2 02 3c 33 e7 94 3d c9 fc a2 bd
       -0.011086417 0.007977173 0.0727066 -0.07958371
000160 9e 35 e9 bd 38 cc 37 bd 72 19 1c be 37 9b 7d be
       -0.1138718 -0.044872493 -0.15244082 -0.24766241
000170 18 59 70 be e2 dc 52 be 1c 7a 62 be 84 03 88 be
       -0.23471487 -0.20592073 -0.22116894 -0.26565182
000180 82 71 8c be 71 0f 80 be 34 d6 4e be 51 6a 58 be
       -0.2743035 -0.2501178 -0.201989 -0.21134306
000190 fb 0a 1d be 4d a5 ad bc 54 04 81 bd 4f f4 27 bd
       -0.1533622 -0.021196986 -0.06299654 -0.041004475
0001a0 4c 54 d7 bd 7d d1 74 bd 47 8c 36 bd f6 79 36 bd
       -0.10514125 -0.059770096 -0.044567373 -0.044549905
0001b0 b6 58 38 bd c1 78 ea 3c c0 e5 76 bc 26 86 6d bc
       -0.045006476 0.028622033 -0.015069425 -0.0144973155
0001c0 3a 7c 07 bd cf dc b0 3c 24 65 60 3d 2e ae ef bc
       -0.033077456 0.021589665 0.054783955 -0.02925786
0001d0 5b 26 76 3c ab 0e b3 bd 2b f9 c1 bd 12 59 96 bc
       0.015023793 -0.08743032 -0.09471353 -0.018353019
0001e0 72 8b 88 bd 88 a6 dc 3a 5a c5 a4 bc c7 c5 65 3d
       -0.06667222 0.0016834298 -0.020113636 0.05609682
0001f0 4f 0e 6e 3d 03 71 05 3d 8c f8 9d 3a 33 c1 31 bc
       0.058119114 0.03257848 0.0012052222 -0.010849285
000200 b7 03 37 3d e6 5b 6f 3d d6 32 0b 3d 8b 94 c9 3b
       0.044681277 0.05843725 0.033984028 0.006151741
000210 c0 b8 e6 bb a7 8b ff bb 6e 0a 96 ba a2 8c 85 bc
       -0.007041067 -0.0077986303 -0.00114472 -0.01630241
000220 02 25 91 3c 43 55 cc bc 3a 97 e2 bc e9 00 f5 bc
       0.017717842 -0.024943 -0.027660001 -0.02990766
000230 c0 42 93 3b 88 bf d5 3c e0 e8 d6 bc 7a fc d0 bb
       0.004494041 0.026092306 -0.02623409 -0.006377754
000240 ac 17 a0 3c 60 79 5c 3c e1 ff 92 3d cf c0 78 3d
       0.019542538 0.013456672 0.07177711 0.06073075
000250 13 23 05 3e c7 5a c9 3d 94 dc 84 3d f6 5d 60 3d
       0.13001661 0.098317675 0.064873844 0.054777108
000260 37 2f 95 bb 6c 99 9c bd 83 12 3f bc fe 8e d5 3c
       -0.0045527476 -0.076464504 -0.011662128 0.02606916
000270 61 4c 03 3c 04 3a a6 3c 6a 34 3b bc 3d 9a 16 bd
       0.008013816 0.020291336 -0.011426071 -0.036768187
000280 1b 9f 14 ba 05 fb 04 3d a7 55 29 3d 5d be cd 3d
       -0.00056694605 0.032465953 0.04134145 0.100460745
000290 40 5b 07 3e ee 19 02 3e 97 e7 c4 3c 08 f9 63 3c
       0.13218403 0.12705204 0.024036212 0.013914354
0002a0 e8 01 3b 3c cd 3d b8 bc 4c 32 56 3d 20 f5 ee bb
       0.011414029 -0.022490406 0.05229406 -0.007292405
0002b0 e2 3c b3 3d 14 26 b1 3d 83 4e 52 3d 61 24 86 3d
       0.08751847 0.08649841 0.051344406 0.065499075
0002c0 d7 91 48 3d c5 bd 8f 3d 20 c8 47 3c 51 56 95 bc
       0.04896721 0.070186175 0.01219371 -0.018229635
0002d0 0a 8b e7 bd c7 64 b0 bd c4 8d c7 bd c7 c6 49 bd
       -0.113058165 -0.08612972 -0.097438365 -0.049261834
0002e0 43 6b 8d bd 2c ca 35 bd e7 38 ec bc d2 f6 98 bd
       -0.06905224 -0.04438226 -0.028835727 -0.07468952
0002f0 11 8f 11 bd fa b9 d5 bc f5 e2 8a 3c 0f 3f 63 bb
       -0.03553683 -0.026089657 0.016953925 -0.0034675037
000300 33 b2 16 bb 0a 71 5b bc 1a 3b 07 3c 6b 04 2e 3b
       -0.0022994399 -0.01339365 0.008253837 0.0026552926
000310 71 3e 81 3c eb 30 0b 3d 7b 3d 77 3e 62 94 87 3e
       0.015776845 0.0339822 0.24144547 0.26480395
000320 2e 72 cf 3d 7c 37 e1 3d e9 0d c5 3d 4c 49 58 3d
       0.101292 0.10996911 0.09621794 0.052804276
000330 89 e0 27 3c f3 21 81 3d ad 12 fc 3c b8 06 51 3c
       0.010246404 0.063053034 0.030770624 0.0127579495
000340 42 a6 75 bd ad 72 91 bc e7 ba b3 bd 8d e5 d3 bd
       -0.05997301 -0.017754877 -0.08775883 -0.10346518
000350 9e 86 45 bd dc 05 c7 bc ed 13 a4 bc 28 e7 5b 3c
       -0.048224084 -0.024294786 -0.020029033 0.013421811
000360 fe 42 0d bc ef 48 1c bd b5 4f 13 bd ff 29 ab bd
       -0.008621929 -0.038155492 -0.035964686 -0.083576195
000370 10 39 37 be 5a ac 1e be 2c 0f 2b bb e6 05 d2 bd
       -0.17892861 -0.15495434 -0.0026101572 -0.10255031
000380 6e e0 ac bd d1 af 78 3e a2 ec a3 3e 3d 90 80 3e
       -0.08441244 0.24285819 0.32016474 0.25110045
000390 ad 4d 60 3e da 36 05 3e 57 f5 a9 3d f7 73 9a 3c
       0.21904631 0.13009205 0.08298748 0.018854124
0003a0 cf a3 a9 3d 83 81 d3 3d 0e 6f b8 3d 49 13 89 3d
       0.08283197 0.10327437 0.09005557 0.066931315
0003b0 b4 1d 6d 3d 7a 68 e7 3c e0 79 1c bc 6c 1d 8c bd
       0.057889655 0.02824806 -0.009550542 -0.06841549
0003c0 10 dc 00 bd 63 83 bd ba e2 a3 1b 3d c5 4e ed 3c
       -0.031459868 -0.0014458712 0.037998088 0.028968224
0003d0 be bb b2 bc 77 c2 60 bc ae 54 f1 bd a2 06 36 be
       -0.021818038 -0.013718239 -0.117837295 -0.17775968
0003e0 35 4c 78 be ab 48 4d be e8 39 c3 bd 48 d3 96 bd
       -0.2424782 -0.20047252 -0.09532529 -0.073645175
0003f0 8d 49 de 3d 0c e4 4e 3e 68 db 80 3e f6 b0 7e 3e
       0.108538724 0.2020418 0.25167394 0.24872193

fc1.bias f4 [20]
000000 39 27 37 3e 69 93 8f 3e 40 a1 19 be f7 b3 da 3e
       0.17886056 0.28042153 -0.15002918 0.42715427
000010 cf 8d bc bc e7 ae 36 bb 4a b1 03 3f ee aa 46 bd
       -0.023016838 -0.0027875246 0.51442397 -0.048502855
000020 a0 8c 95 3e 79 9e 08 bd c0 15 3e bd 06 87 29 3e
       0.2920885 -0.033354256 -0.04640746 0.16555414
000030 49 da 6e 3e 50 53 56 be 45 bc 5f 3d 70 e2 a9 3d
       0.23325457 -0.20930219 0.054622907 0.08295143
000040 64 7d 43 bd c8 65 a0 3e 55 24 8d be 7b bc ae 3c
       -0.047727004 0.31327653 -0.27566782 0.021330109

fc2.weight f4 [10, 20]
000000 0b 5a 39 bf 4c 8a 85 bf 40 70 95 bf fd f7 d8 3e
       -0.7240302 -1.043283 -1.1674881 0.423767
000010 81 71 ba bf 80 c7 99 3e c3 51 a3 bf e3 02 65 bf
       -1.4565889 0.3003502 -1.2759327 -0.8945753
000020 c2 fb 75 bd 38 28 9e bf 50 29 af 3e 48 5b 58 bf
       -0.060054548 -1.2356024 0.34211206 -0.84514284
000030 22 21 bc bf d5 8a c4 3e 8f ad ab 3e 44 9f f3 3e
       -1.4697611 0.3838717 0.33530852 0.47582448
000040 89 2f 98 bf cc 1d 85 bf 31 ec 77 bf 14 9c 5b bf
       -1.1889507 -1.0399718 -0.96844774 -0.8578503
000050 d7 7a 92 bf 42 7e 27 3f ce 8f 6c bf 6e 2a d0 bf
       -1.1443738 0.6542703 -0.9240693 -1.6262949
000060 99 96 c8 3e e0 c1 3e bf 80 7a 68 3e 9b f2 22 bf
       0.39177397 -0.7451458 0.2270298 -0.63651437
000070 d7 7b a8 bf 2d f0 67 bf c6 9c 7b bf 5b a9 03 bf
       -1.3162793 -0.90600854 -0.9828609 -0.5143029
000080 66 b0 97 3e eb e1 a0 bf 7f 94 a6 3d 23 3a 5b bf
       0.2962677 -1.2568945 0.08133792 -0.85635585
000090 69 f1 ca 3e 6e 71 eb 3e 12 5d c4 3e 85 ae b8 3e
       0.39637306 0.45984977 0.38352257 0.36070648
0000a0 e5 9b d7 3d 39 bd f7 be 8f b6 34 bf 67 9f 52 be
       0.105277814 -0.48386553 -0.7059106 -0.2056862
0000b0 e5 43 d2 be f2 6d 0d 3e 6c 0a 92 bf a3 98 f1 3e
       -0.41067424 0.13811472 -1.140943 0.47186765
0000c0 90 18 ff be 09 53 90 bf 7d 89 56 3e c2 9a 05 3f
       -0.49823427 -1.127534 0.20950885 0.52189267
0000d0 31 9a 8c bf 91 b1 62 be 2f 0f 57 be 32 3c 9e 3e
       -1.0984555 -0.22138049 -0.21001886 0.309053
0000e0 6c 63 1d 3e 21 c6 00 3f f7 bb dd 3e 59 5e ed 3e
       0.15369958 0.5030232 0.43307468 0.46361044
0000f0 60 ec b0 be 31 3d 7a bf 83 f0 03 be b8 b9 4a bf
       -0.3455534 -0.9774962 -0.12884717 -0.79189634
000100 6b 91 09 bf 12 ea 71 3e 6e eb fd 3d dd 55 c5 3e
       -0.53737515 0.23624447 0.1239842 0.3854207
000110 23 f9 25 bf 6d 06 24 3f ce bb 1e bf 59 70 c8 bd
       -0.6483328 0.64072305 -0.6200532 -0.097870536
000120 ac 4a d2 3e 07 8b 31 bf fc 20 70 3e b6 ce af 3e
       0.41072595 -0.69352764 0.23450083 0.34337395
000130 b9 95 a1 bd 9e 4b 27 bf 72 b9 9d 3e 49 69 c5 3e
       -0.078898855 -0.6534976 0.30805546 0.3855689
000140 d8 d3 bd 3e 13 21 22 be 68 e0 91 3e 87 d4 82 3e
       0.37075686 -0.1583293 0.2849152 0.2555277
000150 cb 49 ee 3e 1f 03 c1 bf 7a d5 b2 3e a1 58 ae 3e
       0.46540675 -1.5079077 0.34928495 0.34051993
000160 cd 3b a8 3e f3 9f 56 bf d5 e5 01 3e 86 9b 6f bf
       0.32858124 -0.83837813 0.1268533 -0.93596685
000170 9e 4a 2f 3e 79 6c 7a bd d6 fc a4 bf 05 69 a6 bf
       0.17118308 -0.061138604 -1.288966 -1.30008
000180 16 a3 5b bf ab 68 3f bf bc db 98 bf a8 34 77 bf
       -0.85795724 -0.74769086 -1.1942058 -0.9656472
000190 59 59 87 bf 60 34 80 3e d4 dc 2e 3e 8d 5c 4c 3e
       -1.0574142 0.2503996 0.17076427 0.1995718
0001a0 27 09 10 bf 05 e6 38 3e 52 9e 78 bd 53 06 63 be
       -0.56263965 0.18056495 -0.06069786 -0.22170381
0001b0 ac 21 30 bf 5b fe 1d 3f 0c 3b 31 3e b3 85 e3 3e
       -0.6880138 0.6171624 0.17307681 0.44437942
0001c0 f8 7b d0 3e b0 f3 d3 3d 81 53 4f 3e 59 66 a4 be
       0.4071958 0.10349214 0.20246698 -0.32109335
0001d0 a4 a2 1e bf 3a 8d cf be 9e 74 ca be 7f a9 20 bf
       -0.6196692 -0.40537435 -0.39542097 -0.6275863
0001e0 96 13 0e bf 25 5e 43 3f 2c b3 07 3e 7a 6d a1 3e
       -0.55498636 0.7631553 0.13251942 0.31528836
0001f0 8b ae 81 bf 97 e9 42 bf ef 8b d2 bf dc 4b ad 3e
       -1.0131391 -0.7613768 -1.6448954 0.3384694
000200 46 ba 90 3e 3e 28 82 be 4c 5f 97 3e 6b b1 5b bf
       0.28267115 -0.25421327 0.29564893 -0.85817593
000210 8c af 6a bf 17 c6 a2 3e 87 b0 2f bf e9 1b 4e bf
       -0.91674113 0.31791756 -0.68628734 -0.8051134
000220 da 60 08 3d 60 ff f8 3e 4d 0a 75 bf 4b 5e c2 3e
       0.03329549 0.48632336 -0.9571884 0.37962565
000230 85 7f bb 3e 20 db 44 bf fb c9 54 bf 8d 7f 3c bf
       0.36620727 -0.7689686 -0.831207 -0.7363213
000240 02 f3 e1 bd 79 47 3c 3e 9c a8 d6 3e 84 49 38 bf
       -0.11032678 0.1838664 0.41925514 -0.71987176
000250 bf c4 c8 3e 56 b0 43 bf 65 ca 8f bf b4 8b 23 3f
       0.39212605 -0.7644094 -1.1233641 0.63885045
000260 10 ab 4a bf e1 d6 45 bf b2 07 6f bf d0 4f cf 3e
       -0.7916727 -0.77281004 -0.9337112 0.4049058
000270 fd d8 be 3e 0d c1 5a bf c8 c4 02 bd 37 5c 7e 3c
       0.37274924 -0.8545082 -0.031925946 0.015524915
000280 9b e9 14 bf 01 65 95 be cb 45 6b 3e df d7 11 bf
       -0.58168954 -0.29178622 0.22975843 -0.5697002
000290 87 4f aa 3e 1a 0a 26 3e 03 52 ad be 04 f3 57 bd
       0.332638 0.16214791 -0.33851632 -0.052721992
0002a0 d3 1c 45 bf 34 04 2b bf 7f d9 57 3e 79 98 3b 3e
       -0.7699711 -0.6680329 0.21079062 0.18319882
0002b0 c8 c1 58 3e 8c cb 84 3e 03 57 37 3e 07 94 b1 be
       0.21167672 0.25936544 0.17904286 -0.34683248
0002c0 36 d3 9f 3e 2b fb 04 bf b9 ab a2 3e 99 cc 63 be
       0.3121583 -0.5194575 0.3177164 -0.22246017
0002d0 18 f7 ac 3e 5a b7 87 bf e8 d7 43 3e 95 d2 54 bf
       0.33782268 -1.060283 0.1912533 -0.8313382
0002e0 96 6a df 3e 46 3a aa be 04 a1 c2 3e cc 9b 83 bf
       0.43636006 -0.33247584 0.3801347 -1.028192
0002f0 64 47 a3 3e 6c 61 a7 3e cc 45 90 be 13 d1 6c bf
       0.31890404 0.32691514 -0.2817825 -0.9250652
000300 09 c4 30 be 32 4b 2c 3e 9a 70 c4 be 96 fe 85 3e
       -0.17262281 0.1682556 -0.38367158 0.26170796
000310 f6 47 27 3e 55 f3 c0 bf 4b 8f 59 bf f0 aa b8 bf
       0.16336045 -1.5074259 -0.8498427 -1.4427166

fc2.bias f4 [10]
000000 0f 0d 89 3e 0f da f1 3e 65 11 05 bf f4 01 ac be
       0.26767775 0.47236678 -0.51979667 -0.3359524
000010 dc 01 c3 3d 85 eb 41 3d 79 bd 11 bf 3d ab ef 3c
       0.09521839 0.04734375 -0.5692974 0.029256457
000020 c1 aa 3a be e7 a2 9b 3e
       -0.182292 0.30397722
