save_model/kd_Student_11_0.9164999723434448.pth (torch, 65183 bytes, 4 tensors)

fc1.weight f4 [20, 784]
0.008492466 0.015320215 0.008535169 -0.033216264 -0.021464655 -0.030408567 0.009883579 -0.035139468
0.011670757 0.008726511 -0.015515542 0.034337346 -0.051301453 -0.018786374 0.029692004 0.0070478176
-0.028235938 -0.013282793 0.010255203 0.027227882 -0.023538757 -0.008347997 0.021525327 -0.0353035
-0.0069325734 -0.033351194 0.03547479 -0.018762972 0.030432899 0.015632369 0.014359374 0.010150403
-0.0526189 -0.049464155 -0.09134648 -0.121394515 -0.11034546 -0.1367058 -0.15693866 -0.203596
-0.17104141 -0.17365035 -0.13935913 -0.10979811 -0.05770113 -0.1418282 -0.12188627 -0.13825049
-0.12637156 -0.05436489 -0.08249991 -0.061731674 0.027806979 0.022923354 0.023440238 0.0049348846
-0.017216764 0.024673209 -0.036810465 -0.027447777 -0.038969208 -0.045980297 -0.10833521 -0.1543141
-0.20735982 -0.20994282 -0.31635454 -0.348963 -0.35358953 -0.3964699 -0.3077906 -0.28391528
-0.2743689 -0.20865808 -0.22856493 -0.25062186 -0.17461407 -0.14092422 -0.14339362 -0.12036753
-0.042283583 -0.023968223 -0.0035307296 0.016728431 -0.011086417 0.007977173 0.051845513 -0.04072691
-0.07214853 -0.040458273 -0.10483993 -0.17245694 -0.14390084 -0.1314474 -0.15686959 -0.19557978
-0.21374807 -0.1901949 -0.1726927 -0.1704693 -0.13645907 -0.040453173 -0.0810015 -0.04775424
-0.08555142 -0.04167719 -0.031984247 -0.04043814 -0.032699116 0.0075763217 -0.015069425 -0.0144973155
-0.033077456 0.021589665 0.018809084 -0.020237084 0.0045656553 -0.043170154 -0.038095582 0.022915212
-0.03806955 0.0076204813 -0.024297768 0.04134613 0.041849345 0.024904387 0.0059781005 -0.005043137
0.026414195 0.0250879 -0.003168172 -0.017599558 -0.03173976 -0.03395249 -0.017746216 -0.014132255
0.031631786 -0.012818579 -0.016589846 -0.02990766 0.004494041 0.026092306 -0.01325099 0.01533111
0.020860247 0.020192888 0.079014756 0.058400456 0.092755295 0.061285336 0.039541926 0.03860071
0.0106876055 -0.05624594 -0.007904245 0.0130341 0.00830208 0.01744403 -0.017623017 -0.030813586
-0.016855426 0.0027008324 0.023348 0.07813707 0.1052629 0.079755746 0.014947615 0.013914354
0.011414029 -0.031020962 0.04696823 -0.0035075676 0.060963884 0.07731606 0.043072727 0.05000683
0.024015702 0.03548097 -0.013230457 -0.008980816 -0.08887192 -0.05318884 -0.07968398 -0.037620477
-0.062346563 -0.05217665 -0.035693184 -0.06431347 -0.03906832 -0.05647345 -0.0022397966 -0.018519303
-0.026691258 -0.03826694 0.0014595413 0.0026552926 -0.0033356468 0.01588535 0.16286245 0.16142495
0.039914638 0.06688415 0.066062756 0.04576658 0.0095323855 0.0373167 0.0059223673 0.0128478315
-0.05733429 -0.01511197 -0.07681999 -0.09958837 -0.06499011 -0.046279676 -0.03663883 -0.0017489135
-0.02648101 -0.044553783 -0.038723294 -0.059947085 -0.16033114 -0.12372039 -0.042903904 -0.08389284
-0.060107276 0.16493545 0.20826368 0.16189554 0.12931181 0.08456525 0.06835274 0.025483187
0.08105397 0.07713557 0.05533181 0.04994205 0.045260914 0.020473152 0.0021130126 -0.05027266
-0.020331673 -0.02082586 0.0054385196 0.017285004 -0.014781685 -0.005514183 -0.07863477 -0.13595854
-0.19368896 -0.17671414 -0.10411629 -0.048698813 0.06770513 0.12449968 0.15878132 0.15556277
00000000: fc23 0b3c a401 7b3c 18d7 0b3c c70d 08bd
00000010: a5d6 afbc 631b f9bc bcee 213c 67ee 0fbd
00000020: b436 3f3c a4f9 0e3c e634 7ebc 51a5 0c3d
00000030: 7921 52bd e2e5 99bc a53c f33c 61f1 e63b
00000040: 0e4f e7bc 12a0 59bc 7005 283c 020d df3c
00000050: 5ad4 c0bc 0ac6 08bc e255 b03c 679a 10bd
00000060: a42a e3bb 439b 08bd 034e 113d ceb4 99bc
00000070: 6a4e f93c 740f 803c 9443 6b3c e04d 263c
00000080: ea86 57bd ed9a 4abd dd13 bbbd b09d f8bd
00000090: cdfc e1bd 9bfc 0bbe 87b4 20be 787b 50be
000000a0: 7b25 2fbe 66d1 31be 29b4 0ebe d5dd e0bd
000000b0: 0558 6cbd 693b 11be 829f f9bd 8991 0dbe
000000c0: 8c67 01be b8ad 5ebd b6f5 a8bd 5ada 7cbd
000000d0: 76cb e33c c2c9 bb3c be05 c03c d0b4 a13b
000000e0: 2c0a 8dbc 781f ca3c 92c6 16bd 29da e0bc
000000f0: 2d9e 1fbd d655 3cbd dade ddbd 8404 1ebe
00000100: 2256 54be 40fb 56be 39f9 a1be 47ab b2be
00000110: b009 b5be 1afe cabe bb96 9dbe 585d 91be
00000120: 157a 8cbe 77aa 55be ed0c 6abe 8251 80be
00000130: 08ce 32be 704e 10be c7d5 12be 4083 f6bd
00000140: 8d31 2dbd 0259 c4bc d063 67bb 100a 893c
00000150: cea3 35bc b0b2 023c f65b 543d 43d1 26bd
00000160: 9cc2 93bd 93b7 25bd 51b6 d6bd 8d98 30be
00000170: be5a 13be 269a 06be 6ca2 20be 1146 48be
00000180: c6e0 5abe 74c2 42be 5bd6 30be 818f 2ebe
00000190: edbb 0bbe 3ab2 25bd 1de4 a5bd f399 43bd
000001a0: 9535 afbd b4b5 2abd ea01 03bd 77a2 25bd
000001b0: 82ef 05bd cb42 f83b c0e5 76bc 2686 6dbc
000001c0: 3a7c 07bd cfdc b03c 8215 9a3c 3ec8 a5bc
000001d0: 7e9b 953b 30d3 30bd 1d0a 1cbd afb8 bb3c
000001e0: d1ee 1bbd 3bb5 f93b 1d0c c7bc 8f5a 293d
000001f0: 386a 2b3d 4904 cc3c f1e3 c33b e640 a5bb
00000200: 9562 d83c 2485 cd3c 1ba1 4fbb f32c 90bc
00000210: 8d01 02bd c411 0bbd 8360 91bc f98a 67bc
00000220: 5590 013d 0405 52bc 6ee7 87bc e900 f5bc
00000230: c042 933b 88bf d53c ae1a 59bc 562f 7b3c
00000240: 1ce3 aa3c 8e6b a53c 7dd2 a13d 5135 6f3d
00000250: 7df6 bd3d 5506 7b3d b7f6 213d c71b 1e3d
00000260: 111b 2f3c 2562 66bd ce80 01bc fa8c 553c
00000270: 7305 083c c8e6 8e3c 255e 90bc c66c fcbc
00000280: 6414 8abc 7300 313b 4e44 bf3c 5406 a03d
00000290: 1394 d73d fb56 a33d d7e6 743c 08f9 633c
000002a0: e801 3b3c ac1f febc c261 403d 38df 65bb
000002b0: 44b5 793d e257 9e3d 076d 303d f6d3 4c3d
000002c0: 94bc c43c 7e54 113d 8fc4 58bc 4624 13bc
000002d0: 7b02 b6bd 8bdc 59bd 5b31 a3bd ee17 1abd
000002e0: 1c5f 7fbd 2fb7 55bd 0433 12bd c8b6 83bd
000002f0: 1a06 20bd b450 67bd 8dc9 12bb cbb5 97bc
00000300: a0a7 dabc cbbd 1cbd 144e bf3a 6b04 2e3b
00000310: de9a 5abb fe21 823c 6ac5 263e 954c 253e
00000320: 887d 233d 8ffa 883d e94b 873d bd75 3b3d
00000330: b92d 1c3c 65d9 183d 6b10 c23b b67f 523c
00000340: 5cd7 6abd 3298 77bc cd53 9dbd fdf4 cbbd
00000350: 8919 85bd c28f 3dbd 9912 16bd cd3b e5ba
00000360: b4ee d8bc 077e 36bd 519c 1ebd 138b 75bd
00000370: d92d 24be 1e61 fdbd 01bc 2fbd 02d0 abbd
00000380: 0c33 76bd d7e4 283e 1343 553e f2c7 253e
00000390: 516a 043e 8c30 ad3d 85fc 8b3d 1ec2 d03c
000003a0: a0ff a53d 41f9 9d3d 9ca3 623d 0990 4c3d
000003b0: 8263 393d 50b7 a73c 787a 0a3b b4ea 4dbd
000003c0: 9c8e a6bc fe9a aabc 9c35 b23b 4899 8d3c
000003d0: e12e 72bc 52b0 b4bb 440b a1bd b738 0bbe
000003e0: 6656 46be 8df4 34be ec3a d5bd 6878 47bd
000003f0: fda8 8a3d b0f9 fe3d 9297 223e d94b 1f3e

fc1.bias f4 [20]
0.13121107 0.22139066 -0.10479279 0.3200385 0.017737154 0.0034501776 0.38375172 -0.037191965
0.24166605 0.01183896 -0.050699085 0.1500686 0.20655692 -0.14558615 0.05772334 0.057923995
-0.024689518 0.25126398 -0.17810237 0.011961219
00000000: 325c 063e 3cb4 623e 9a9d d6bd 16dc a33e
00000010: 824d 913c 601c 623b 1b7b c43e 9a56 18bd
00000020: 4e77 773e 33f8 413c d8a9 4fbd 95ab 193e
00000030: a883 533e 8914 15be 4f6f 6c3d b641 6d3d
00000040: ac41 cabc aca5 803e 7860 36be fdf8 433c

fc2.weight f4 [10, 20]
-0.5938784 -0.7848072 -0.9081106 0.3062105 -1.1094495 0.26033115 -0.920261 -0.7586779
0.04857853 -0.74664974 0.29254985 -0.521424 -1.0332716 0.2996726 0.2724065 0.37780133
-0.91083527 -0.6930532 -0.7521272 -0.6552738 -0.80738574 0.49179405 -0.73302764 -1.1169633
0.31596574 -0.58478296 0.1970119 -0.41332206 -0.9850984 -0.656168 -0.7339103 -0.3828412
0.2372888 -0.9616677 0.10094776 -0.6664355 0.3361894 0.3408644 0.33193108 0.29989824
0.10528051 -0.29840675 -0.551463 -0.13849404 -0.3185206 0.12940155 -0.78887194 0.4256609
-0.3004684 -0.7895044 0.19720659 0.43175048 -0.79844147 -0.18069914 -0.19584575 0.26976728
0.11991215 0.39982957 0.3755238 0.40124705 -0.27920216 -0.6491646 -0.06722828 -0.5915364
-0.4405007 0.21189617 0.1121793 0.3371731 -0.4519729 0.4947947 -0.43979138 -0.12533838
0.35929677 -0.5431198 0.20585343 0.31570226 -0.064234085 -0.46846962 0.2726378 0.3161432
0.29434964 -0.022328822 0.22682327 0.1827001 0.39196658 -1.1112063 0.3052538 0.2941212
0.25957337 -0.648143 0.079650186 -0.6130673 0.16317658 -0.003367791 -0.8963392 -0.9389228
-0.664143 -0.55933416 -0.8208479 -0.6916806 -0.7863719 0.109997645 0.13165076 0.16596802
-0.39079064 0.19027087 -0.041796308 -0.17573895 -0.45763204 0.48374206 0.1763517 0.4024359
0.36498308 0.10676223 0.18848301 -0.21274745 -0.3824249 -0.21320373 -0.25339454 -0.46721393
-0.40652418 0.61166364 0.10717722 0.25957987 -0.74296594 -0.54823357 -1.0516452 0.19362086
0.22711389 -0.022761913 0.2587952 -0.5968403 -0.6610305 0.24360628 -0.5739805 -0.4519932
0.06252591 0.3954896 -0.57134104 0.3332752 0.3140172 -0.51792175 -0.6438192 -0.59658134
-0.06315824 0.14282054 0.35908327 -0.55335903 0.31683654 -0.48378783 -0.82067865 0.5550147
-0.54680467 -0.57568794 -0.6505216 0.34620914 0.32323986 -0.64146656 -0.08594014 -0.0047746734
-0.31973734 -0.25019693 0.20055968 -0.39543414 0.28748828 0.16183512 -0.21742274 0.041990627
-0.52556366 -0.4118468 0.2052788 0.087854356 0.15965243 0.23201287 0.16551337 -0.23426257
0.2916096 -0.40110165 0.29225743 -0.08438491 0.29105696 -0.8033081 0.14359418 -0.6138914
0.38832122 -0.31258878 0.3453482 -0.75082153 0.2664482 0.2797539 -0.23256549 -0.61830413
-0.23376855 0.15833968 -0.35418406 0.23251599 0.15177244 -1.0058306 -0.5709057 -0.9201578
00000000: 6a08 18bf 20e9 48bf f079 68bf 9fc7 9c3e
00000010: 7102 8ebf 204a 853e 3a96 6bbf b738 42bf
00000020: 48fa 463d 7024 3fbf 18c9 953e 0b7c 05bf
00000030: 3e42 84bf b06e 993e dd78 8b3e 2d6f c13e
00000040: 802c 69bf ef6b 31bf 688b 40bf 06c0 27bf
00000050: d5b0 4ebf 6ecc fb3e b3a7 3bbf a7f8 8ebf
00000060: 43c6 a13e 56b4 15bf 7dbd 493e f39e d3be
00000070: 692f 7cbf a0fa 27bf 8ce1 3bbf c303 c4be
00000080: d6fb 723e db2f 76bf b3bd ce3d 849b 2abf
00000090: 0421 ac3e c785 ae3e dff2 a93e 438c 993e
000000a0: 4f9d d73d c5c8 98be ae2c 0dbf 62d1 0dbe
000000b0: 2215 a3be d781 043e 83f3 49bf 3af0 d93e
000000c0: fed6 99be f61c 4abf 86f0 493e 660e dd3e
000000d0: a966 4cbf 3209 39be ca8b 48be f01e 8a3e
000000e0: 8094 f53d 76b6 cc3e a844 c03e 4170 cd3e
000000f0: 96f3 8ebe a72f 26bf fbae 89bd ee6e 17bf
00000100: 4f89 e1be 4ffb 583e 43be e53d f4a1 ac3e
00000110: fe68 e7be bb55 fd3e 562c e1be b458 00be
00000120: bff5 b73e e609 0bbf 3ecb 523e baa3 a13e
00000130: 298d 83bd 40db efbe 2f97 8b3e 86dd a13e
00000140: ffb4 963e efea b6bc 5c44 683e bc15 3b3e
00000150: d8af c83e 023c 8ebf 3a4a 9c3e 0e97 963e
00000160: cde6 843e b3ec 25bf a31f a33d fbf1 1cbf
00000170: c317 273e 28b6 5cbb 7c76 65bf 3f5d 70bf
00000180: 4705 2abf 8630 0fbf 1723 52bf fb11 31bf
00000190: ab4f 49bf 7246 e13d 75cf 063e 85f3 293e
000001a0: b615 c8be 5ed6 423e 9b32 2bbd e9f4 33be
000001b0: bf4e eabe 0aad f73e 8a95 343e 140c ce3e
000001c0: 10df ba3e 28a6 da3d b101 413e 78da 59be
000001d0: 32cd c3be 1452 5abe eebc 81be aa36 efbe
000001e0: f023 d0be fd95 1c3f bb7f db3d a7e7 843e
000001f0: 0433 3ebf 0959 0cbf 4f9c 86bf 8c44 463e
00000200: 8b90 683e 3177 babc ce80 843e 87ca 18bf
00000210: 4b39 29bf ed73 793e 63f0 12bf a76b e7be
00000220: 960d 803d 9d7d ca3e 6843 12bf 0ca3 aa3e
00000230: ddc6 a03e 8596 04bf 56d1 24bf 8eb9 18bf
00000240: 1b59 81bd 8c3f 123e c3d9 b73e f0a8 0dbf
00000250: 6638 a23e 0ab3 f7be ff17 52bf 7215 0e3f
00000260: 64fb 0bbf 4960 13bf 9588 26bf 5342 b13e
00000270: b27f a53e 2737 24bf 6201 b0bd dd74 9cbb
00000280: 9db4 a3be d019 80be 845f 4d3e 5876 cabe
00000290: aa31 933e 1bb8 253e 11a4 5ebe 5dfe 2b3d
000002a0: 578b 06bf 95dd d2be 9b34 523e fcec b33d
000002b0: ed7b 233e c894 6d3e 567c 293e 87e2 6fbe
000002c0: da4d 953e 325d cdbe c4a2 953e ffd1 acbd
000002d0: 6b05 953e 9aa5 4dbf 5a0a 133e fd27 1dbf
000002e0: 0ad2 c63e a30b a0be 7bd1 b03e d735 40bf
000002f0: e66b 883e e73b 8f3e a625 6ebe 2e49 1ebf
00000300: 0661 6fbe cc23 223e 9d57 b5be ac18 6e3e
00000310: 3c6a 1b3e 0fbf 80bf e026 12bf 768f 6bbf

fc2.bias f4 [10]
0.25337002 0.31217757 -0.33146396 -0.25182447 0.10827553 0.024176855 -0.44065866 0.043179963
-0.26270118 0.17481887
00000000: b7b9 813e bdd5 9f3e a5b5 a9be 23ef 80be
00000010: 90bf dd3d 8a0e c63c 039e e1be 79dd 303d
00000020: c580 86be b803 333e
