save_model/Student_21.pth (torch, 160607 bytes, 4 tensors)

fc1.weight f4 [50, 784]
000000 cf ee 01 3d 15 8e c4 bc d1 d9 e3 3c a1 e4 ce bc
       0.031721886 -0.023993531 0.027813824 -0.025255503
000010 aa fd f2 3c 5a 4d fb bc 9a 94 a5 3c 0a d7 47 bc
       0.029661972 -0.030676533 0.02021246 -0.012197265
000020 21 b7 bc 3c 77 0c aa 3b f8 47 12 bd 5c cc ee 3c
       0.023036541 0.005189474 -0.035713166 0.02915018
000030 72 7a f3 bc f7 7a 56 3c 50 39 cc 3c bf 5d a3 3c
       -0.029721472 0.013090841 0.024929672 0.019942163
000040 ae ea c7 3c e2 de 05 3d ce 6e 17 3c 65 c0 96 bc
       0.024403896 0.03268326 0.0092427265 -0.018402288
000050 7a 3b f4 3c a3 ee 9e 3c c1 36 bd bb a0 f6 26 bc
       0.029813517 0.0194009 -0.0057743494 -0.010190636
000060 82 76 0b 3d 4a c8 13 bc fc 03 8d 3c 00 84 19 3c
       0.034048565 -0.009019921 0.017213814 0.00936985
000070 2a 48 07 bd 13 00 7b bc bc d5 b6 bc 93 24 01 38
       -0.033027805 -0.015319842 -0.022318713 3.079006e-05
000080 ef 4b ab 3c 3a af d8 bc f9 08 a8 bd 41 bc e9 bd
       0.020910231 -0.026450742 -0.082048364 -0.1141286
000090 df 95 c5 bd 45 36 fe bd 10 13 b8 bd a7 81 02 be
       -0.09647726 -0.12412695 -0.08988011 -0.12744771
0000a0 7f 6e 0e be 00 1c e1 bd 42 8f 54 bb c5 de 7c 3a
       -0.13909338 -0.10991669 -0.003243402 0.00096462324
0000b0 85 93 22 3d b2 dd 38 3a 73 73 20 bd d2 63 84 bd
       0.039691467 0.0007052078 -0.0391726 -0.06464352
0000c0 8c 5b b8 bd 7c 38 96 bd be 8d 78 bd 82 cf b1 bc
       -0.09001836 -0.07334992 -0.06068205 -0.021705393
0000d0 aa cc 8d 3c d5 ff 94 bc e0 21 24 3c dc a2 95 bc
       0.017309505 -0.018188396 0.010017842 -0.018266134
0000e0 50 51 90 bc 9c 2a 63 bc 6b 5b b9 3c 6e fb 7a 3c
       -0.017616898 -0.013865139 0.0226266 0.015318735
0000f0 a6 20 74 bd 42 06 85 bd 99 8a cf bd b7 b9 0a be
       -0.05960145 -0.06495334 -0.10133857 -0.13547407
000100 90 ec 2c be b3 98 97 bd 6b c7 15 be 98 bb 0b be
       -0.16887116 -0.07402172 -0.14626853 -0.1364578
000110 52 67 47 bd 5c b9 1c 3c 9c 71 70 3c b2 fd 6f 3d
       -0.04868252 0.0095656775 0.014675524 0.058591552
000120 52 4d 84 3d 23 5c 12 bc 3b db b1 3c 9f bd ee bc
       0.0646006 -0.0089331 0.021710983 -0.029143153
000130 90 29 5b bc 8b 3f ae bd 33 4e da bd b0 36 b4 bd
       -0.0133766085 -0.085082136 -0.106594466 -0.08799493
000140 22 4d 7d bc 53 bf 15 3d c6 9d 01 3d 7a 62 d5 bc
       -0.015460284 0.036559414 0.031644605 -0.026047934
000150 0a a5 48 3c 35 b4 8a 3c 77 94 a4 3b 56 fa 2e bd
       0.01224638 0.016931633 0.005022581 -0.042719208
000160 8e 9d 3e bd 0a 46 5e 3c c4 31 a5 3c 83 20 32 3d
       -0.046536975 0.013566503 0.020165332 0.043488037
000170 c9 b9 74 3c c5 66 cc 3d 55 b0 72 3c d9 3d 3e 3d
       0.014936873 0.09980539 0.014812549 0.0464457
000180 be d5 f5 3c 1e 87 6f 3c 15 ae 7d 3d 92 82 57 3d
       0.030009147 0.014619617 0.061933596 0.052614756
000190 31 e3 c3 3d 4b 03 16 3d 01 52 30 bd 09 2c 88 3c
       0.09564818 0.036624234 -0.043046955 0.01662256
0001a0 99 c1 41 bd 79 15 43 bd 58 38 97 bd e8 09 4d bd
       -0.04730377 -0.0476279 -0.073837936 -0.050058275
0001b0 71 a4 86 bb bb 8a 85 3d 0f 9d 50 bc c5 8a da 3c
       -0.0041089584 0.06520601 -0.012732758 0.026677499
0001c0 a6 09 03 bd d4 7e 50 3d b7 3b 1b bc b9 ca ae 3b
       -0.031991623 0.050902203 -0.009474686 0.005334225
0001d0 e2 ba 6c 3d 18 c0 17 3e f9 6b d8 3d af a9 d5 3d
       0.057795413 0.14819372 0.10567469 0.10432755
0001e0 70 cc e8 3d 3f 1e 6e 3d 5c ff 8b 3d eb 90 61 3d
       0.11367118 0.058134314 0.06835815 0.055069845
0001f0 ef c1 c3 3d 32 94 90 3d 9e 96 91 3d 38 af af 3c
       0.09558474 0.07059516 0.07108806 0.021445855
000200 af 18 58 3d 76 ec 16 bc 18 82 a5 3c e6 24 5e bc
       0.052757915 -0.00921165 0.020203635 -0.013558602
000210 92 9e 2e bd 11 b8 c5 bd ea e3 07 be b0 86 c0 bd
       -0.042631693 -0.096542485 -0.13270536 -0.094006896
000220 5e 93 5f bd 5e 7a 48 bc f5 82 ca bb fa 49 cc bc
       -0.0545839 -0.012236206 -0.006180162 -0.024937619
000230 b7 64 a6 ba 0e fd aa bc 22 fe 8e 3d e3 17 72 3d
       -0.001269481 -0.020872619 0.06982066 0.05910481
000240 c5 07 42 3e 00 ab 07 3e 5f 8d 00 3e 96 e2 d9 3d
       0.18948276 0.13248825 0.12553929 0.10638921
000250 d7 50 c3 3d 34 6a 20 3d 75 9e b6 3c 91 ef 58 bc
       0.09536903 0.039163783 0.022292355 -0.013240711
000260 4e a9 65 3d 42 06 23 3c e3 01 5f bc 52 5e 47 3d
       0.056069665 0.009950222 -0.01361129 0.048673935
000270 ae 96 44 3d 24 9c 36 3c ae 11 c0 3c be e5 fc 3c
       0.04799526 0.011145625 0.02344593 0.030871268
000280 78 8e a8 ba 8f 15 0f bd f7 00 90 bd 27 80 15 be
       -0.0012859842 -0.03493267 -0.07031434 -0.14599667
000290 cc f5 cc bd a8 69 8d 3b 7a 44 28 bc be 1e b1 3c
       -0.100078195 0.0043155737 -0.010270232 0.021621104
0002a0 7a 60 02 bd 57 65 08 3d 57 a9 17 bd 1c 4a ac 3d
       -0.03183029 0.03329977 -0.03702673 0.08412573
0002b0 69 61 10 3e 78 8f c8 3d 11 37 b9 3d b9 56 c6 3d
       0.14099659 0.097929895 0.09043706 0.0968451
0002c0 26 56 c9 3c ef 4f 41 3d 06 a7 2a 3d a2 f6 76 bd
       0.024577212 0.04719537 0.041663192 -0.0602938
0002d0 d1 74 58 bd 03 e1 73 bd a6 61 2c bd a3 60 84 bd
       -0.05284578 -0.05954076 -0.042085312 -0.064637445
0002e0 c5 23 35 bd 89 65 de ba 30 2f fa 3c ba 98 22 3c
       -0.044223566 -0.0016967516 0.030540079 0.009924108
0002f0 c4 03 84 3d 93 c4 e1 b9 f9 bd cb bd 8d 01 3a be
       0.06446031 -0.00043061803 -0.09948344 -0.18164654
000300 ba df 4b be 40 26 cd bd 84 db d3 bc 1b 87 b5 bb
       -0.19909564 -0.10017061 -0.02586151 -0.0055397875
000310 88 03 a4 3b 77 c7 52 3d 59 3d 36 bd 0f 94 d3 3d
       0.005005304 0.051459756 -0.0444921 0.10330974
000320 4c 3d 4e 3e da 10 02 3e f3 f8 91 3d 72 e3 16 3d
       0.2014057 0.12701741 0.071275614 0.036838003
000330 25 39 f7 3c 0b fa 12 bd ba 98 0c bd 7c 7b 13 bd
       0.030178616 -0.03588299 -0.03432534 -0.036006436
000340 1a 74 27 bd 30 6f 07 bd cd 58 01 be 37 b4 7e bd
       -0.040882207 -0.03306502 -0.12631531 -0.062183585
000350 43 cc 59 bd 23 e0 aa bc 06 f7 90 3c 0c 5b 8e 3d
       -0.053173315 -0.02085883 0.017695915 0.069509596
000360 f9 6a 87 3c 25 81 e9 bc a9 f0 0e be 46 cf 7f be
       0.0165305 -0.028503964 -0.13958992 -0.24981412
000370 00 c8 9b be a3 1c 32 be ff a6 35 bc f4 37 40 3c
       -0.30426025 -0.17393737 -0.011087178 0.01173209
000380 3f 80 1b 3c 62 b9 da 3c d7 54 f2 3a 0c d3 c6 3d
       0.0094910255 0.026699726 0.0018488419 0.09708223
000390 f8 a4 31 3e c5 4b fa 3d 50 c6 9f 3d dd 4c a5 bb
       0.17348087 0.12221483 0.07801497 -0.005044563
0003a0 e0 a3 9d 3b 7e a4 86 3b ff ab 16 3c 76 06 ad bd
       0.004810795 0.0041089645 0.0091962805 -0.08448498
0003b0 84 27 49 bd c2 75 59 bd 38 60 a4 bd bd 10 8a bd
       -0.04910995 -0.05309082 -0.08026165 -0.06741474
0003c0 84 4d a4 bc a0 fa fc 3c f8 f9 b6 3d 69 71 01 3e
       -0.020056494 0.030881226 0.089343965 0.12640919
0003d0 5b fd 40 3d 3d 2e 04 bd b3 f1 02 be 0d c1 9d be
       0.04711662 -0.03227066 -0.12787513 -0.3081135
0003e0 b3 fc c0 be 8f c3 75 be 1d d2 a2 bd 36 6f 85 3b
       -0.37692794 -0.24000381 -0.07950232 0.0040720953
0003f0 97 9d 99 3c 82 f7 19 bd 0c 82 c0 3b e8 94 dc 3d
       0.018751903 -0.037589557 0.005874878 0.10770589

fc1.bias f4 [50]
000000 52 87 a1 bc cc 1a 0d 3e 48 24 13 be f9 b4 86 3d
       -0.019717846 0.13779753 -0.14369309 0.065774865
000010 37 3a 55 3e c4 7e 02 3e eb 0d 94 3d e1 42 8a 3d
       0.20822988 0.1274367 0.07229217 0.067510374
000020 21 f3 d8 3d 1d e1 35 3e 14 36 33 3d f4 22 d4 3b
       0.10593248 0.17761655 0.043752745 0.0064738933
000030 20 ad 89 3e 69 0b 35 3e 7c aa c9 3d 91 43 2f bd
       0.26889896 0.17680134 0.098469704 -0.042789046
000040 44 9d 45 be 6c 66 78 3d 7a 63 da bd c5 34 82 3d
       -0.19298273 0.060644552 -0.10663505 0.06357721
000050 0b 82 55 3e c2 aa da bd 59 66 82 3b e9 ff 4a 3c
       0.20850389 -0.10677101 0.003979486 0.012390115
000060 38 12 c6 3d 1e e3 39 bd 33 55 91 3e ac e9 55 be
       0.09671444 -0.04538261 0.28385314 -0.2088992
000070 b9 44 01 3e 6a 6a 35 3e 6f eb f2 3c 2d 07 5d 3e
       0.12623872 0.17716375 0.02965328 0.21584769
000080 9e 0f 5b 3e 41 ef 23 3d a4 15 14 bd 95 0a 23 be
       0.21392676 0.040023092 -0.03615345 -0.15922005
000090 77 4e b4 3d fa 45 19 bc 97 d7 12 be 7b a7 fe 3d
       0.088040285 -0.009355063 -0.14340053 0.12434288
0000a0 15 9f 42 3d 64 13 71 3e ad 4e f6 3d 74 9f 87 3c
       0.047514994 0.23542553 0.12026725 0.016555525
0000b0 85 57 47 bb 95 66 8a 3d a7 a1 17 3e c8 ad 32 bd
       -0.0030417156 0.06757847 0.14807759 -0.043622762
0000c0 b6 60 1c bd df 27 a2 bd
       -0.03817817 -0.07917761

fc2.weight f4 [10, 50]
000000 19 f3 0f bf a9 52 a5 be 2d f9 e4 be 31 75 c4 be
       -0.5623031 -0.32289627 -0.44721356 -0.3837066
000010 96 82 c7 be 4e 04 27 3e bd 9a bb bd fe d1 81 be
       -0.38966817 0.16310236 -0.09160373 -0.25355524
000020 a0 65 19 bf e8 9e 20 3e 0a c5 87 3e b7 2c e2 3c
       -0.5992069 0.15685618 0.26517516 0.027609212
000030 f4 3f 32 be a8 fd 67 3e 2d e3 3f 3e f7 e3 9f be
       -0.17407209 0.22655356 0.18739004 -0.3122861
000040 58 d1 3f 3d f2 60 00 bf 9f 29 14 3e f1 5a 54 3e
       0.046830505 -0.50147927 0.14469002 0.20737816
000050 df 4f 1b bf 89 ee b8 bd 59 90 68 3e f0 71 99 be
       -0.6066875 -0.09029872 0.22711314 -0.2996974
000060 7b 37 2b bf 59 d9 42 3e 4e 4b 02 bf b5 0b e0 be
       -0.6688153 0.19028224 -0.50896156 -0.43758932
000070 bc df 55 3e 86 7e e0 be 23 d0 fe be be 59 81 3e
       0.20886129 -0.4384653 -0.4976817 0.2526378
000080 41 4b 8b be db 88 a6 be 5f d0 5f 3e e9 60 ef 3d
       -0.27205852 -0.32526287 0.21856831 0.11688406
000090 29 c1 c4 be b4 4f ef be c3 03 55 3e 26 6a 93 bd
       -0.3842862 -0.46740496 0.20802216 -0.071979806
0000a0 70 e4 23 bf 2c 52 a0 3e 73 49 2b 3e c9 18 38 3e
       -0.6402044 0.31312692 0.16727237 0.17978205
0000b0 5b 29 37 be 64 f1 87 bd ff 39 18 bf 45 22 9e be
       -0.1788687 -0.066378385 -0.59463495 -0.3088552
0000c0 c2 bf 21 3e 37 70 04 bf 76 76 6a 3e 34 74 8c 3e
       0.15795806 -0.51733726 0.22896752 0.27432406
0000d0 6f e6 86 3e 4f 23 3d 3e 91 40 31 3e 31 37 42 3e
       0.26347682 0.184705 0.17309786 0.18966366
0000e0 5e 6a d0 be c3 1b e6 be 3e 4c 5c 3e 96 02 19 3e
       -0.40706152 -0.44943056 0.21513459 0.14942393
0000f0 c0 c9 c6 be 5c 12 85 3d 6b 3b 8b 3e d0 f0 c8 be
       -0.38825798 0.064976424 0.2719377 -0.39246225
000100 3c 3f a2 be d4 b4 75 3e 18 69 ef be 75 0c 10 bf
       -0.3168887 0.23994762 -0.46759868 -0.5626901
000110 70 ed b1 be 37 c7 2a bf c3 8d 81 3e aa 1b b8 be
       -0.34751463 -0.6671023 0.25303468 -0.35958606
000120 6a 97 ba be 31 ae 18 3e 2d 7f 07 3e bb fb 06 bf
       -0.36443645 0.14910199 0.13232107 -0.5272786
000130 2e 15 3d 3e 24 e3 6f 3e 2b 1f 2e 3e 6f b4 fe bc
       0.1846511 0.23426491 0.17004077 -0.031091897
000140 c7 73 c5 be 25 f3 d5 bc 29 ce 06 bf 4e 16 f8 be
       -0.38564894 -0.026116917 -0.52658325 -0.48454517
000150 b8 4e 54 3e 9f 63 09 bf 11 fc 9a be d7 65 6d 3e
       0.20733154 -0.53667635 -0.30270436 0.2318338
000160 af 58 e4 be d9 c3 04 be d2 99 31 3e 5d 94 b7 be
       -0.4459891 -0.12965335 0.17343834 -0.3585538
000170 35 71 2e bf 20 87 1a 3e 0d 4f d4 3d 99 b0 41 bb
       -0.6814149 0.15090609 0.1036664 -0.0029554723
000180 bf ec 58 3e 1e 08 d4 be fd 35 cb be 07 c7 e9 be
       0.21184061 -0.41412443 -0.39689627 -0.45659658
000190 1b 2b 58 3e f5 a6 c8 bd c2 a8 2f be 50 7a 30 3e
       0.21110193 -0.097974695 -0.1715422 0.17234159
0001a0 36 72 2b 3e 91 2e 95 bd ce c4 65 3e 3a d7 4c bf
       0.16742787 -0.072842725 0.22438356 -0.8001591
0001b0 08 8c 24 bf 32 1a 2b 3e 5e 8d a6 be 18 aa e3 3d
       -0.6427617 0.16709211 -0.3252973 0.11116427
0001c0 01 79 8b be 9d 7b 31 be fd 04 90 be e2 a6 e8 bc
       -0.27240756 -0.17332311 -0.28128806 -0.028399888
0001d0 cb 04 e7 3d 1e 6d 2b 3e 42 0b 27 bd 58 31 0c 3e
       0.11280211 0.16740844 -0.04078222 0.13690698
0001e0 9e 1c 8f 3e 02 4d c2 3e 65 0c 56 3e ce 70 27 3d
       0.2795152 0.37949377 0.20903166 0.040879063
0001f0 fd 6a 91 3d 66 27 b3 be a9 95 9d be 23 53 58 3e
       0.071004845 -0.34990996 -0.30778244 0.21125464
000200 13 45 9f be 4b 0b c5 bd dd 16 a2 be 40 f6 78 be
       -0.31107387 -0.096212946 -0.31658068 -0.24312687
000210 db 7a 02 bf a3 cb 31 3e 9b 88 72 3e 47 c0 b2 3d
       -0.5096871 0.17362837 0.23684923 0.0872808
000220 eb 9a 84 3e 36 08 93 bd a1 13 88 3d e6 da 4a be
       0.25899443 -0.071793005 0.06644369 -0.19810066
000230 75 64 ea bd a4 47 5a 3e 02 fe a3 3d a6 98 b9 bd
       -0.11444942 0.21316391 0.080074325 -0.090623185
000240 7c 0b 06 3e fe 43 0b 3e ec fe 60 be b5 4a c6 be
       0.13090318 0.13600156 -0.21972245 -0.38728872
000250 50 41 df 3d e2 e2 71 be 10 5d 58 3e f5 99 ae be
       0.10901129 -0.23621705 0.2112925 -0.34101835
000260 9f 6c 5d 3e 1a 50 6f 3e 80 84 2c be 67 7a 01 bf
       0.21623467 0.233704 -0.1684742 -0.50577396
000270 a2 f8 31 be f6 ed 4f 3d 5f 8f 09 be 14 76 8d be
       -0.17380002 0.050764047 -0.13433598 -0.2762915
000280 b3 8d 3d be 46 82 ed 3d 29 b3 bf be 23 5c 2e 3e
       -0.18511085 0.11597113 -0.37441376 0.17027335
000290 94 28 06 3e c5 46 38 be 89 ed e1 3d 0f 5b 49 be
       0.13101417 -0.17995746 0.11031634 -0.19663642
0002a0 86 9c 1a bd 22 91 4c be 8c b8 7a bd be d1 14 bd
       -0.03774693 -0.19977239 -0.061211154 -0.03633284
0002b0 0f 42 1c 3e fe 4e df bd eb b7 0d 3e ab 06 be be
       0.15259574 -0.109037384 0.1383969 -0.37114462
0002c0 3c ec a5 be 0a 5f 45 3e 1e 8b 78 3e da 9d 72 bc
       -0.32406795 0.19274536 0.24271819 -0.014808143
0002d0 18 50 db 3d 89 f1 38 bd cc 33 56 3e b1 6b 16 3e
       0.10708636 -0.04515222 0.20918196 0.14689519
0002e0 21 60 46 3e cc a1 a1 3d 59 4f ca bd fd 33 ea be
       0.19372608 0.078921884 -0.098784156 -0.4574279
0002f0 ea 94 3f be 2a 8e d2 be 1d a5 ac 3e 7e 0c 61 be
       -0.1870915 -0.41124088 0.3371972 -0.21977422
000300 82 de ca be b8 a8 dc 3c e3 88 f8 3d 69 5b 80 be
       -0.39622885 0.02693592 0.12135484 -0.2506974
000310 b1 13 29 be 47 11 8b 3e 57 8a 87 3d 5e 38 54 3d
       -0.16511418 0.2716162 0.06618183 0.05181157
000320 73 62 4f 3e c6 80 79 3e ea c7 97 be 44 ee c4 be
       0.20252399 0.2436553 -0.2964471 -0.38463032
000330 7e fa d8 bd 66 f6 c1 be 03 ba 89 3e 53 5d 46 be
       -0.105946526 -0.378833 0.26899728 -0.19371538
000340 ab 25 46 3e bb d8 24 3e ce 66 db bd 47 52 24 bf
       0.19350307 0.16098301 -0.10712968 -0.64188045
000350 cd 09 6e be f7 ed 09 bf 3a 98 31 3e 38 75 54 be
       -0.23245926 -0.5387873 0.17343226 -0.2074784
000360 ec 39 34 bf ad c6 7d 3e 50 ef b6 be c8 50 12 3e
       -0.7040088 0.2478282 -0.35729456 0.14288628
000370 8b b3 a5 be e1 a6 af be c9 44 34 bf 4b 43 5b 3d
       -0.32363543 -0.34307006 -0.7041746 0.053530972
000380 5a a5 cc be 6c 22 4f 3e 22 dc 52 3e 21 ca e9 be
       -0.39969903 0.20227975 0.20591787 -0.45662025
000390 dd f8 b7 be 0d ff 41 3e 1f cd 2b 3e 4d 58 bf be
       -0.35932055 0.1894495 0.16777466 -0.37372056
0003a0 fb 00 4f 3e cc 05 d9 be d4 92 c4 be 6d 68 06 3e
       0.20215218 -0.42387235 -0.3839327 0.13125773
0003b0 84 da fa bd 24 53 70 3e a6 9d 81 be 71 13 8d 3e
       -0.1224871 0.23469216 -0.2531559 0.27553895
0003c0 99 b7 04 bf 6f ed 68 be d7 e2 41 3e 68 63 11 bf
       -0.5184265 -0.22746824 0.18934189 -0.56792307
0003d0 68 c6 0c bf 43 66 f8 bd a9 e1 aa 3d 90 b7 a7 be
       -0.54990244 -0.1212888 0.083438225 -0.32757235
0003e0 53 2b 51 bf 74 90 1e 3e f3 53 f4 be aa 6e 95 be
       -0.8170673 0.15484792 -0.47720298 -0.29185992
0003f0 dd 64 99 be fb 18 aa be 37 04 9a be 73 60 6e 3d
       -0.29959765 -0.33222184 -0.3008134 0.05819745

fc2.bias f4 [10]
000000 d1 66 2f 3d fc ae 4a 3e 13 f2 a1 be 77 6a 2e 3d
       0.042822663 0.19793314 -0.3163 0.042582
000010 b1 85 a6 3e 86 f0 18 3e fc 77 52 be e3 a2 0c 3e
       0.32523873 0.14935502 -0.20553583 0.13734011
000020 be 33 2f be d2 bf 94 bd
       -0.17109582 -0.07263149
