save_model/Student_20_0.9159.pth (torch, 65183 bytes, 4 tensors)

fc1.weight f4 [20, 784]
000000 fc 23 0b 3c a4 01 7b 3c 18 d7 0b 3c c7 0d 08 bd
       0.008492466 0.015320215 0.008535169 -0.033216264
000010 a5 d6 af bc 63 1b f9 bc bc ee 21 3c 67 ee 0f bd
       -0.021464655 -0.030408567 0.009883579 -0.035139468
000020 b4 36 3f 3c a4 f9 0e 3c e6 34 7e bc 51 a5 0c 3d
       0.011670757 0.008726511 -0.015515542 0.034337346
000030 b0 a9 41 bd 3e fa af bc a8 43 98 3c 37 bf 6a bb
       -0.047280967 -0.02148163 0.018586949 -0.003581954
000040 0e 4f e7 bc 12 a0 59 bc 70 05 28 3c 02 0d df 3c
       -0.028235938 -0.013282793 0.010255203 0.027227882
000050 5a d4 c0 bc 0a c6 08 bc e2 55 b0 3c 67 9a 10 bd
       -0.023538757 -0.008347997 0.021525327 -0.0353035
000060 a4 2a e3 bb 43 9b 08 bd 03 4e 11 3d ce b4 99 bc
       -0.0069325734 -0.033351194 0.03547479 -0.018762972
000070 6a 4e f9 3c 74 0f 80 3c 94 43 6b 3c e0 4d 26 3c
       0.030432899 0.015632369 0.014359374 0.010150403
000080 e9 2b 43 bd 8a 85 1d bd 71 d0 70 bd 37 82 af bd
       -0.047649298 -0.03845743 -0.058792535 -0.085697584
000090 de 7b 9e bd ef ef c4 bd 71 0c ea bd b8 47 1d be
       -0.077384695 -0.09616076 -0.11428154 -0.1535939
0000a0 e9 2b f2 bd 3a 9f fd bd cc c6 ed bd 99 13 a7 bd
       -0.118247814 -0.12383886 -0.11610183 -0.08158035
0000b0 bb ae 2d bd 0e cc de bd f4 83 a1 bd d8 7f d1 bd
       -0.042402964 -0.10878764 -0.07886496 -0.102294624
0000c0 d8 28 cf bd ce 33 29 bd 7d 33 8c bd e2 f7 3c bd
       -0.10115212 -0.04130917 -0.06845758 -0.046134837
0000d0 76 cb e3 3c c2 c9 bb 3c be 05 c0 3c d0 b4 a1 3b
       0.027806979 0.022923354 0.023440238 0.0049348846
0000e0 2c 0a 8d bc 78 1f ca 3c 92 c6 16 bd 5c ee 72 bc
       -0.017216764 0.024673209 -0.036810465 -0.014827337
0000f0 3f 6e 6f bc bf 60 eb bc 5d 02 9e bd 0a 45 d2 bd
       -0.014613687 -0.028732656 -0.077152945 -0.102670744
000100 bd ed 10 be 4a 51 0c be bf 83 5d be 7b 7f 74 be
       -0.1415319 -0.13702884 -0.21632288 -0.23876755
000110 82 d7 80 be 3e 14 9c be 13 3c 6f be b0 9c 68 be
       -0.2516442 -0.30484194 -0.2336276 -0.22716022
000120 26 30 64 be 9d 49 2b be d5 47 39 be 95 2f 50 be
       -0.22283992 -0.167273 -0.18093808 -0.20330651
000130 a8 a8 01 be fc 6d b7 bd a1 1f e1 bd 40 2d cb bd
       -0.12661994 -0.08956525 -0.10992361 -0.0992074
000140 e0 85 0e bd a3 f3 a0 bc d0 63 67 bb 10 0a 89 3c
       -0.034795642 -0.019647425 -0.0035307296 0.016728431
000150 ce a3 35 bc b0 b2 02 3c 54 2c 34 3d 35 ec cc bc
       -0.011086417 0.007977173 0.043987587 -0.025014976
000160 ad 44 6b bd d5 07 0f bd 40 12 97 bd d1 b1 ed bd
       -0.05743854 -0.03491958 -0.07376528 -0.116061814
000170 f2 d6 ac bd a1 f3 ac bd e8 5a e8 bd f9 75 0e be
       -0.08439435 -0.08444906 -0.11345464 -0.1391219
000180 17 2d 26 be 63 23 15 be e6 30 15 be 8d 44 17 be
       -0.16228138 -0.1456428 -0.14569435 -0.14772244
000190 1d 93 06 be 63 3c 3e bd bf de b7 bd 3a 77 64 bd
       -0.13142057 -0.046444308 -0.08978032 -0.055777766
0001a0 14 6a ac bd 90 12 2e bd ba c3 d7 bc ba 77 f2 bc
       -0.0841867 -0.04249817 -0.026338447 -0.029598106
0001b0 2b 1d 34 bc 01 43 03 3c c0 e5 76 bc 26 86 6d bc
       -0.010993282 0.00801158 -0.015069425 -0.0144973155
0001c0 3a 7c 07 bd cf dc b0 3c 13 c1 c5 3b e3 32 98 bc
       -0.033077456 0.021589665 0.006034979 -0.018578952
0001d0 40 ec a7 bb 8c f1 e6 bc 92 56 ae bc f2 c4 2a 3d
       -0.0051245987 -0.02819135 -0.021281514 0.041691728
0001e0 9d 06 bf bc 3d 48 07 3c 0f 6d c7 bc ab 20 13 3d
       -0.023318583 0.008256969 -0.024343995 0.035919826
0001f0 cc 73 04 3d c2 9e b1 3c ac 1c 3a 3c d7 1b aa 39
       0.032336995 0.021682147 0.011359375 0.0003244567
000200 8f 6b a3 3c 13 f6 a1 3c 11 3a 18 bc bc 81 b7 bc
       0.019948749 0.019770658 -0.009291188 -0.02240073
000210 e7 26 41 bd b0 9f 3f bd 24 a0 0e bd 6d 80 21 bd
       -0.04715624 -0.04678315 -0.03482069 -0.039429117
000220 b2 7d 4b 3b f6 61 ee bc 93 23 a2 bc e9 00 f5 bc
       0.0031050262 -0.029099446 -0.019792354 -0.02990766
000230 c0 42 93 3b 88 bf d5 3c 36 a6 e4 ba ef 7e 80 3c
       0.004494041 0.026092306 -0.0017444554 0.015685527
000240 c1 38 1e 3c 3a 3e 2d 3c 64 8d 96 3d db 9c 6a 3d
       0.009657086 0.010573918 0.07351187 0.057278495
000250 78 00 ac 3d 4e 53 6b 3d 0c f2 1e 3d d3 3c 09 3d
       0.08398527 0.057452492 0.038805053 0.033505272
000260 c3 0f ab 3c 3b 75 11 bd 75 0e 3b 3c d8 b3 d2 3c
       0.02088154 -0.03551219 0.011417021 0.025720522
000270 b0 cd a3 3c 2b db 00 3d f8 33 ce bb d2 dc a5 bc
       0.01999554 0.031459015 -0.0062928163 -0.020246897
000280 bc 78 88 bc 9b 5f 07 3b d9 a2 49 3c ba a2 17 3d
       -0.016659133 0.002065635 0.012306892 0.037020423
000290 9d 1c 51 3d e1 47 07 3d 55 4d 35 3c 08 f9 63 3c
       0.05105268 0.033027533 0.011065801 0.013914354
0002a0 e8 01 3b 3c a8 dd c8 bc 74 51 32 3d ba 3f 63 bc
       0.011414029 -0.024519756 0.04353471 -0.013870174
0002b0 c6 42 35 3d 90 fd 6a 3d 01 93 22 3d 8f 46 3a 3d
       0.044253133 0.057370722 0.039690975 0.045477446
0002c0 31 ea ac 3c 44 4c 1b 3d e9 7a dc bb ff 53 0c 3c
       0.021107765 0.03791453 -0.006728519 0.008564948
0002d0 9a 36 77 bd e6 ab 88 bc d7 d3 3f bd 9d d6 55 bc
       -0.060354806 -0.01668353 -0.046832886 -0.013051656
0002e0 7b 77 2c bd c7 b4 fd bc ac f5 96 bc 13 a0 4d bd
       -0.042106133 -0.03096999 -0.018427692 -0.050201487
0002f0 76 6b c5 bc 92 72 5f bd 5e c4 fe ba c7 ad c7 bc
       -0.024099093 -0.054552622 -0.0019437184 -0.024374856
000300 af 31 3b bd 50 7a 60 bd c8 c8 23 bc 6b 04 2e 3b
       -0.04570168 -0.054804146 -0.0099966 0.0026552926
000310 35 db 6d bc e5 00 2d 3c c6 99 f2 3d 5d d7 bf 3d
       -0.014517595 0.010559295 0.11845736 0.09367249
000320 df 93 0c b9 8b af 10 3d bf 44 62 3d 98 9a 2b 3d
       -0.00013406527 0.03532366 0.055241343 0.04189548
000330 6a 29 83 3c 36 e4 2a 3d d5 a0 41 3c c5 d4 cd 3c
       0.016010959 0.041721545 0.0118181305 0.02512587
000340 0b f5 32 bd ef 52 96 bb af 3c 69 bd 01 80 a2 bd
       -0.043690722 -0.004587523 -0.056942638 -0.07934571
000350 e7 4b 5a bd cd d3 28 bd c0 36 20 bd 17 19 fa bb
       -0.053295042 -0.041217614 -0.039114714 -0.0076323855
000360 9f e9 df bc 79 7c 13 bd c1 37 0c bd 60 b5 37 bd
       -0.027333079 -0.03600738 -0.03423286 -0.044850707
000370 70 5b 12 be a1 7b e2 bd bf b2 74 bd 7d b9 87 bd
       -0.14292693 -0.110587366 -0.059740778 -0.06627176
000380 22 5c 46 bd 90 98 be 3d 99 d7 00 3e ec 6b b8 3d
       -0.04842771 0.09306443 0.12582244 0.090049595
000390 57 35 81 3d 53 42 35 3d aa 01 4c 3d db 54 86 3c
       0.06309002 0.044252705 0.049806274 0.016397884
0003a0 6b b5 9a 3d 8b 1d 83 3d 0e bc 08 3d 80 99 24 3d
       0.07554134 0.06402119 0.033382468 0.04018545
0003b0 b5 55 09 3d 9c f0 52 3c a9 32 18 3c fe e3 0e bd
       0.033529002 0.012874749 0.009289422 -0.0348854
0003c0 81 94 0a bc 68 15 da bc 47 6c 88 bc e7 ad 0a 3b
       -0.008458258 -0.026621535 -0.016653193 0.0021160783
0003d0 c6 37 82 bc bf 2c eb 3b a8 06 51 bd 6d 78 d7 bd
       -0.015895735 0.007176965 -0.05103174 -0.10521016
0003e0 74 be 21 be 2b a6 15 be 8d 31 b2 bd b9 4e db bc
       -0.15795308 -0.1461417 -0.08700857 -0.026770936
0003f0 56 cd 47 3d 17 76 bb 3d 15 2f 9e 3d 03 14 88 3d
       0.048779808 0.09153383 0.07723824 0.06644442

fc1.bias f4 [20]
000000 2b e8 cb 3d 66 02 37 3e c4 45 9d bd 05 de 81 3e
       0.09956392 0.17872009 -0.07679322 0.253647
000010 9a df 1d 3d 77 7e 55 3c 76 d7 98 3e 2e 23 75 bc
       0.03854332 0.01303064 0.29851884 -0.014962001
000020 89 b7 4b 3e e9 b2 f0 3c 1f 80 45 bd bf ce ff 3d
       0.19894232 0.029382186 -0.04821789 0.124906056
000030 3b b7 32 3e 98 07 e1 bd 14 b1 79 3d 9b f3 3c 3d
       0.1745271 -0.109877765 0.06095989 0.046130758
000040 37 e7 71 bc b5 c7 59 3e 08 a5 dc bd 17 cb 2d 3c
       -0.014764599 0.21267588 -0.10773665 0.010607502

fc2.weight f4 [10, 20]
000000 50 85 ee be e4 32 16 bf 15 f5 34 bf 0d d6 6c 3e
       -0.46586084 -0.586714 -0.70686466 0.23128529
000010 f4 c6 55 bf 8f ca 71 3e 2a 6e 2c bf 6a bd 19 bf
       -0.83506703 0.23612426 -0.67355597 -0.6005465
000020 5f 48 97 3d a4 e9 ea be 5f 91 85 3e 2f 26 9d be
       0.073868506 -0.4588138 0.26087472 -0.30693194
000030 e0 27 3f bf bd e1 81 3e 2a 77 70 3e 0f ab 9e 3e
       -0.7467022 0.25367537 0.23482957 0.30989882
000040 f7 7d 2e bf 55 81 f3 be 45 49 14 bf 32 5f 00 bf
       -0.6816096 -0.4755961 -0.579243 -0.50145257
000050 2e b1 10 bf 18 7f cf 3e 4c 16 1a bf 2b b6 3c bf
       -0.56520355 0.40526652 -0.6019027 -0.73715466
000060 e2 a4 96 3e 76 ca d7 be bd 15 4a 3e 90 f0 81 be
       0.2942267 -0.42146653 0.19734855 -0.25378847
000070 a2 14 34 bf 91 c2 fd be 51 46 0d bf 46 a2 91 be
       -0.70343983 -0.49562505 -0.5518542 -0.28444117
000080 d2 64 4d 3e ee 2a 3a bf 74 3f 05 3e 1a 8c 00 bf
       0.20057991 -0.72721756 0.13012487 -0.5021378
000090 0a 80 92 3e 72 5f 8c 3e d4 47 92 3e 23 ef 88 3e
       0.2861331 0.2741657 0.28570426 0.26744947
0000a0 11 b1 e4 3d 93 8a 5c be 7c 6f d8 be 49 6b f0 bd
       0.11166585 -0.21537237 -0.42272556 -0.11739213
0000b0 87 64 85 be 59 f8 d9 3d 3e 4b 10 bf 34 3b ba 3e
       -0.2605326 0.10643072 -0.5636481 0.36373293
0000c0 21 7d 48 be 73 97 0f bf f3 a1 39 3e d4 52 b3 3e
       -0.19578983 -0.5609047 0.18128185 0.3502413
0000d0 5f 91 19 bf 7c ea 27 be 46 bc 43 be 0a f5 74 3e
       -0.59987444 -0.16398042 -0.1911479 0.239216
0000e0 af 16 d3 3d 4f 7c 9f 3e f6 41 a6 3e b1 3b b1 3e
       0.10307061 0.31149527 0.324722 0.34615853
0000f0 60 8d 68 be 4b 9b e8 be cd b1 4c bd a0 d2 ea be
       -0.2271018 -0.4543098 -0.04997425 -0.4586382
000100 86 ab b5 be 22 4d 40 3e 98 c8 ba 3d c2 e2 9e 3e
       -0.35482424 0.18779424 0.091202915 0.31032377
000110 04 51 aa be 1a e4 c5 3e 5e 0f ac be bf 58 ff bd
       -0.33264935 0.3865059 -0.33605474 -0.12468099
000120 63 9a a0 3e 3e d2 de be 67 47 3f 3e a5 fd 8e 3e
       0.31367788 -0.43519777 0.18679582 0.2792789
000130 50 2d eb bc 7a a8 b7 be fa ed 76 3e 98 c7 8a 3e
       -0.02870813 -0.35870725 0.24114218 0.27105403
000140 15 4b 7f 3e 23 0f 28 ba ec 88 40 3e ff 7f 19 3e
       0.24930985 -0.0006410947 0.18802232 0.14990233
000150 1d a2 ac 3e 8b 40 53 bf 3e f7 83 3e 98 d6 83 3e
       0.33717433 -0.8252036 0.25774568 0.2574966
000160 00 11 57 3e 27 6e 06 bf 49 61 80 3d 4f f1 c3 be
       0.21002579 -0.5251183 0.06268556 -0.3827004
000170 da 9d 2c 3e 32 c7 9d 3b 53 da 19 bf e4 46 30 bf
       0.1685709 0.0048150057 -0.6009876 -0.6885817
000180 25 5f 0b bf 03 fe d9 be 6c cc 13 bf 76 c4 fb be
       -0.54442054 -0.42576608 -0.577338 -0.49173325
000190 04 65 11 bf aa c0 73 3d 36 fe c6 3d 1d 00 05 3e
       -0.5679476 0.05950991 0.09716456 0.12988324
0001a0 25 59 9b be 15 be 2d 3e 3d 86 ad bc 16 26 03 be
       -0.3034145 0.16967042 -0.021182174 -0.12807497
0001b0 00 8c 9a be 11 0d ca 3e 24 6a 26 3e 68 14 bb 3e
       -0.30184937 0.39463094 0.16251427 0.36539006
0001c0 d4 64 a5 3e 21 52 ad 3d ce 49 21 3e c1 13 1b be
       0.32303488 0.084629305 0.1575081 -0.15144254
0001d0 ae 44 6f be 7b 9e ae bd 37 f7 49 be e2 35 bc be
       -0.23366043 -0.085263215 -0.19723211 -0.3675986
0001e0 4f 48 94 be 7b b5 f5 3e ef a7 c8 3d 4f ef 5b 3e
       -0.28961417 0.4799002 0.09797656 0.21478008
0001f0 ac ca 12 bf 82 56 cc be a4 4e 28 bf 72 2b ca 3d
       -0.573405 -0.3990975 -0.65744996 0.09871568
000200 2b 5d 4c 3e 2f 77 2e 3d 02 12 6e 3e 77 6d d1 be
       0.19957416 0.04259413 0.23249057 -0.40903828
000210 b5 25 f9 be 1c 17 3c 3e 0e 2e f7 be 09 5f 4e be
       -0.4866158 0.1836819 -0.48277324 -0.2015344
000220 96 be 91 3d af c0 9d 3e 7d d5 a8 be 97 33 8f 3e
       0.071164295 0.30811068 -0.3297538 0.27969047
000230 77 b2 81 3e 39 c8 bb be 71 3c 07 bf 51 76 f4 be
       0.2533147 -0.36676195 -0.528266 -0.47746518
000240 13 5f 86 bd 46 f2 10 3e ed dc a3 3e 60 0b de be
       -0.06561103 0.1415492 0.3200449 -0.43368053
000250 33 f2 83 3e a2 0a 9f be 04 32 1a bf 85 37 f0 3e
       0.2577072 -0.310628 -0.6023257 0.46917358
000260 c8 7d c2 be 98 f7 da be a2 06 f9 be 35 8c 9a 3e
       -0.37986588 -0.42767024 -0.48637873 0.30185094
000270 09 fc 88 3e 93 18 f1 be d6 b0 af bd ab ac f3 3b
       0.26754788 -0.4708906 -0.08578651 0.007436355
000280 a9 6f 53 be ec 4a 74 be 60 c2 2f 3e ff 40 a2 be
       -0.20648064 -0.23856705 0.17163992 -0.31690213
000290 eb 12 82 3e 3a 18 21 3e 70 d9 2f be c3 98 9a 3d
       0.25405058 0.15731898 -0.1717279 0.07548668
0002a0 3c ce b9 be 2c ee 9d be 4e ab 43 3e 77 40 bf 3c
       -0.36290157 -0.30845773 0.19108316 0.023346169
0002b0 c1 74 ce 3d ff c7 5e 3e cc c1 0a 3e 9b 4e 23 be
       0.10080863 0.2175598 0.1355049 -0.15947954
0002c0 86 2a 8d 3e 85 5e b0 be 54 be 8b 3e e9 2e e5 bc
       0.27571505 -0.34447113 0.27293646 -0.02797647
0002d0 f9 ce 75 3e 97 dc 16 bf 86 73 dc 3d 0f 99 f2 be
       0.24004735 -0.58930343 0.10764222 -0.473824
0002e0 d2 56 b3 3e d8 cf 90 be 8d a6 a1 3e af 64 1d bf
       0.35027176 -0.28283572 0.3157238 -0.61481756
0002f0 a9 b4 69 3e b1 f5 86 3e a7 28 40 be 30 83 dc be
       0.22822823 0.26359323 -0.18765508 -0.43068838
000300 29 a9 80 be 51 4a 2f 3e f3 c3 a5 be 88 fc 4e 3e
       -0.2512906 0.17118193 -0.3237606 0.2021352
000310 52 22 07 3e db 96 28 bf 40 7d ca be 26 2d 15 bf
       0.13196686 -0.6585519 -0.39548683 -0.58272016

fc2.bias f4 [10]
000000 25 6e 81 3e ba 39 63 3e dc 08 75 be 4e 8f 5a be
       0.25279346 0.2218999 -0.23929161 -0.21343729
000010 fb 49 01 3e 7e 75 c5 bb e2 12 b7 be dd 4c 25 3d
       0.12625878 -0.006025969 -0.35756594 0.040356506
000020 db 31 8e be 4d 0d af 3d
       -0.27772412 0.08547459
