save_model/Student_0_0.810700.pth (torch, 65183 bytes, 4 tensors)

fc1.weight f4 [20, 784]
0	0x3c0b23fc	0.008492466
1	0x3c7b01a4	0.015320215
2	0x3c0bd718	0.008535169
3	0xbd080dc7	-0.033216264
4	0xbcafd6a5	-0.021464655
5	0xbcf91b63	-0.030408567
6	0x3c21eebc	0.009883579
7	0xbd0fee67	-0.035139468
8	0x3c3f36b4	0.011670757
9	0x3c0ef9a4	0.008726511
10	0xbc7e34e6	-0.015515542
11	0x3d0ca551	0.034337346
12	0xbcf8c4d3	-0.03036729
13	0xbb5f0180	-0.0034027994
14	0x3ca0d332	0.019631956
15	0xbb256930	-0.0025239699
16	0xbce74f0e	-0.028235938
17	0xbc59a012	-0.013282793
18	0x3c280570	0.010255203
19	0x3cdf0d02	0.027227882
20	0xbcc0d45a	-0.023538757
21	0xbc08c60a	-0.008347997
22	0x3cb055e2	0.021525327
23	0xbd109a67	-0.0353035
24	0xbbe32aa4	-0.0069325734
25	0xbd089b43	-0.033351194
26	0x3d114e03	0.03547479
27	0xbc99b4ce	-0.018762972
28	0x3cf94e6a	0.030432899
29	0x3c800f74	0.015632369
30	0x3c6b4394	0.014359374
31	0x3c264de0	0.010150403
32	0xbd105e94	-0.035246447
33	0xbc4bd9c0	-0.012442052
34	0x3ae66813	0.0017578624
35	0xbc955d79	-0.018233048
36	0xbbe130d0	-0.006872274
37	0xbb2f7621	-0.0026773291
38	0xbc125cde	-0.008933274
39	0xbcb07d47	-0.021544112
40	0x3c9cb62b	0.019129833
41	0x3c6412ac	0.013920467
42	0xbd1c90e4	-0.038224116
43	0x3a9a9653	0.0011794068
44	0x3b3dea26	0.0028978675
45	0xbcc202e3	-0.023683017
46	0x3b145366	0.0022632717
47	0xbcf52a51	-0.029927405
48	0xbd236bde	-0.039897792
49	0x3b5082b8	0.0031816196
50	0xbd024732	-0.03180618
51	0xbca71ca5	-0.020399401
52	0x3ce3cb76	0.027806979
53	0x3cbbc9c2	0.022923354
54	0x3cc005be	0.023440238
55	0x3ba1b4d0	0.0049348846
56	0xbc8d0a2c	-0.017216764
57	0x3cca1f78	0.024673209
58	0xbd16c692	-0.036810465
59	0x3c2fe668	0.0107360855
60	0x3c5790f6	0.01315712
61	0x3ba939f8	0.005164381
62	0xbc538e15	-0.012912293
63	0x3bc45e7f	0.00599271
64	0xbb3fb3bd	-0.002925142
65	0x3cae0c06	0.021245968
66	0xbc218121	-0.009857447
67	0xba440802	-0.0007478
68	0x3aa46aa0	0.0012543984
69	0xbd54e119	-0.051972482
70	0x3b1773ee	0.002310987
71	0xbbab3a41	-0.0052254503
72	0xbceab577	-0.028650982
73	0xb7f3ddb6	-2.90711e-05
74	0xbcb23ee7	-0.02175851
75	0xbd877276	-0.066136286
76	0xbc24a9d2	-0.010050254
77	0x3c63711f	0.013881951
78	0xbcf12214	-0.029435195
79	0xbd269574	-0.040669873
80	0xbc8e5b43	-0.017377501
81	0xbc5d8f2c	-0.013522904
82	0xbb6763d0	-0.0035307296
83	0x3c890a10	0.016728431
84	0xbc35a3ce	-0.011086417
85	0x3c02b2b0	0.007977173
86	0x3ce87399	0.028375434
87	0x3c403314	0.011730928
88	0xbc4a9918	-0.012365602
89	0xbcbaafe6	-0.022788953
90	0xbc9b1d54	-0.018934883
91	0xbce3fd9c	-0.027830891
92	0x3cc18392	0.023622308
93	0x3c9afe1c	0.018919997
94	0x3b6e261c	0.0036338633
95	0x3c008fb0	0.007846758
96	0x39c1c9e0	0.00036962237
97	0x3c89931b	0.016793778
98	0x3c0054f4	0.007832754
99	0xbc26e10e	-0.010185493
100	0xbd3a4387	-0.045474555
101	0x3a9917b2	0.0011680035
102	0xbd60ca06	-0.054880165
103	0xbcd30879	-0.025760876
104	0xbd3f2631	-0.04666728
105	0xbc7d99b6	-0.015478542
106	0xbc8b74e6	-0.017023515
107	0xbc9bb56b	-0.019007405
108	0x3c93d415	0.018045465
109	0x3b88b78a	0.00417227
110	0xbc76e5c0	-0.015069425
111	0xbc6d8626	-0.0144973155
112	0xbd077c3a	-0.033077456
113	0x3cb0dccf	0.021589665
114	0xbc977dc7	-0.018492592
115	0xbc44e7f4	-0.012018193
116	0xbbf015ab	-0.007326802
117	0xbcdc7deb	-0.026915511
118	0xbc8d5b2f	-0.017255394
119	0x3d2e24ab	0.042515438
120	0xbc8d76dc	-0.01726859
121	0x3c41f4ce	0.011838151
122	0xbc172738	-0.009225659
123	0x3d386bfb	0.045024853
124	0x3d3f71f5	0.046739537
125	0x3d206849	0.039161954
126	0x3d1d96e1	0.038473967
127	0x3caec300	0.021333218
128	0x3bb4ae55	0.005513946
129	0xbb7feff1	-0.0039052928
130	0xbc7d07db	-0.015443767
131	0xbc20d8f6	-0.0098173525
132	0xbd320a27	-0.043466713
133	0xbd051a64	-0.03249587
134	0xbbfd3d90	-0.007728286
135	0xbd142121	-0.036164407
136	0xbcb3f324	-0.021966524
137	0xbd04d98f	-0.032434043
138	0xbcb299e1	-0.02180189
139	0xbcfc4495	-0.030794421
140	0x3b9342c0	0.004494041
141	0x3cd5bf88	0.026092306
142	0x3c503f16	0.012710353
143	0x3ccf8b17	0.025334878
144	0xbb285817	-0.0025687271
145	0xbcd1ab79	-0.02559446
146	0x3d0cf115	0.0344096
147	0x3c958597	0.018252177
148	0x3d380688	0.044928104
149	0x3ccee403	0.025255209
150	0x3cc70566	0.024294566
151	0x3cb84020	0.022491515
152	0x3d08e08f	0.03341728
153	0xbd0867a0	-0.03330195
154	0xbc6c4472	-0.0144206155
155	0xbc247683	-0.010038021
156	0xbc4a6620	-0.01235345
157	0x3c315dcd	0.0108255865
158	0x3bbaf4b2	0.0057054395
159	0x3ca82fd0	0.020530611
160	0x3cbac95b	0.022801092
161	0x3ce70faf	0.02820572
162	0x3c94f590	0.0181835
163	0xbbae8a83	-0.0053265705
164	0xbc1e1b56	-0.009650072
165	0xbceec128	-0.029144838
166	0x3c6fc9f9	0.014635556
167	0x3c84c9cf	0.016209511
168	0x3c3b01e8	0.011414029
169	0xbc261d60	-0.0101388395
170	0x3cd00b10	0.0253959
171	0xbc551568	-0.013005592
172	0x3ced82ce	0.028993037
173	0x3cba27b0	0.022724003
174	0x3c632771	0.013864384
175	0x3cadfba1	0.02123815
176	0xbb258b29	-0.0025259948
177	0x3c8360dd	0.016037399
178	0xbc50ec26	-0.012751615
179	0x3d0b7d1f	0.03405487
180	0xbcfdab0e	-0.030965354
181	0x3addf377	0.001693352
182	0xbd3f7421	-0.04674161
183	0xbcdcb652	-0.026942406
184	0xbd4ef031	-0.050522033
185	0xbcdba6a7	-0.026812864
186	0x3c5d00ca	0.013488958
187	0xba1b0202	-0.000591308
188	0x3cc7f176	0.02440713
189	0xbd0c3791	-0.03423268
190	0x3bd38f25	0.006456273
191	0xbcd37b50	-0.025815636
192	0xbd174a43	-0.036936056
193	0xbd1c3539	-0.038136695
194	0x3c92df70	0.017928809
195	0x3c6eecec	0.014582854
196	0xbcfac05c	-0.030609302
197	0x3ca2d85d	0.01987856
198	0x3d314d1b	0.043286424
199	0x3d18c261	0.03729475
200	0xbc7fa033	-0.015602159
201	0x3c0b6148	0.00850708
202	0x3d33940a	0.043842353
203	0x3d1cc76a	0.038276114
204	0x3c210a8f	0.0098291775
205	0x3d0b18e4	0.033959284
206	0x3c45e346	0.012078112
207	0x3d389300	0.045062065
208	0xbd046ab3	-0.03232832
209	0xbb882a13	-0.0041554063
210	0xbd2dff9c	-0.042480096
211	0xbd618527	-0.055058625
212	0xbd18788f	-0.03722435
213	0xbcaf0cb7	-0.021368368
214	0xbb2c1b14	-0.0026261257
215	0x3d035308	0.032061607
216	0xbb31cde6	-0.0027130782
217	0xbcb813a4	-0.022470303
218	0xbcf5c7bf	-0.030002473
219	0x3c2c888b	0.010530601
220	0xbd573c92	-0.052548
221	0xbc6cac79	-0.014445418
222	0xbd3b4138	-0.045716494
223	0xbd2807c0	-0.041023016
224	0xbcd00fe2	-0.025398199
225	0x3d1914e8	0.037373453
226	0x3c8bd48e	0.017069127
227	0x3d308eaf	0.043104824
228	0x3c6257cf	0.0138148805
229	0x3c5e01e9	0.01355026
230	0x3d3a2d80	0.04545355
231	0x3c02cc70	0.007983312
232	0x3d8d7b2e	0.0690826
233	0x3d37b6e2	0.044852145
234	0x3c2c6834	0.010522891
235	0x3ce042b9	0.027375566
236	0x3c042a19	0.0080666775
237	0xbbc8a181	-0.0061227684
238	0x3cced4eb	0.025248012
239	0x3c42f039	0.011898094
240	0x3d0a78f1	0.033806745
241	0xbae9b71e	-0.0017831062
242	0x3c47fbce	0.012206031
243	0x3d2a02b6	0.04150649
244	0x3c179982	0.009252908
245	0x3cec7259	0.028863119
246	0xbbe5d190	-0.007013507
247	0xbbb82228	-0.005619306
248	0xbc7f3f54	-0.015579063
249	0xbcb19179	-0.021675812
250	0xbcc8e291	-0.024522098
251	0x3bff2baa	0.0077871876
252	0x3ca4d23b	0.020119777
253	0x3d0b902a	0.034073032
254	0x3c7a5943	0.015280071
255	0x3b7d05e3	0.0038608245

fc1.bias f4 [20]
0	0x3cc90a27	0.024540974
1	0x3c8c93ee	0.017160382
2	0xbc6a0a1d	-0.014284638
3	0x3d2441c1	0.04010177
4	0x3c174f08	0.009235151
5	0x3ca73f2d	0.020415867
6	0x3d76c95b	0.06025062
7	0x3cb90fcc	0.02259054
8	0x3d172507	0.036900546
9	0x3cc4220c	0.023942016
10	0xbc98ee75	-0.018668393
11	0x3c37ad9f	0.011210828
12	0x3d16a537	0.036778655
13	0xbd06d288	-0.032915622
14	0x3c42bd7a	0.011885995
15	0xbc45b225	-0.012066399
16	0xbc1f22dc	-0.009712901
17	0x3d150f9b	0.036391836
18	0x3d345985	0.044030685
19	0xbc85d96e	-0.01633903

fc2.weight f4 [10, 20]
0	0xbe127e6b	-0.14306037
1	0xbe59b19c	-0.21259159
2	0xbe8e8393	-0.27834758
3	0x3d722fc6	0.05912759
4	0xbe88c7fb	-0.26715073
5	0x3ca840f9	0.020538794
6	0xbe8c7da2	-0.274396
7	0xbe81cfb3	-0.25353774
8	0x3daebde1	0.0853231
9	0xbde9943d	-0.11405227
10	0x3e0b6d84	0.13615996
11	0x3cfa0622	0.030520502
12	0xbe81782f	-0.25287005
13	0x3e5f8ce4	0.2183109
14	0x3d17d88c	0.03707175
15	0x3e0afceb	0.13573043
16	0xbe3ec7c1	-0.18630888
17	0xbd99b627	-0.07505446
18	0xbe6afb08	-0.22947323
19	0xbe323b22	-0.1740537
20	0xbe2cc376	-0.16871437
21	0x3ddd305a	0.10800238
22	0xbe83547a	-0.25650388
23	0xbe12e3e6	-0.14344749
24	0x3e8126b8	0.25224853
25	0x3c926825	0.017871926
26	0x3e5ae4ac	0.21376294
27	0x3c225e0c	0.009910118
28	0xbe924c5d	-0.28573886
29	0xbdb6e237	-0.08929866
30	0xbe3d565c	-0.18489975
31	0x3d2f714a	0.04283265
32	0x3de916ee	0.113813266
33	0xbe6341c3	-0.22193055
34	0x3e3e0643	0.18557076
35	0xbe2aff69	-0.16698994
36	0x3e322f6c	0.17400903
37	0x3cdafcfc	0.02673196
38	0x3e5dc193	0.21655874
39	0x3e020b6f	0.12699674
40	0x3e460d32	0.19340971
41	0xbe43a155	-0.19104512
42	0xbe39b47c	-0.18135256
43	0xbe141ec9	-0.14464869
44	0xbd43a9e8	-0.047769457
45	0x3d57ff60	0.05273378
46	0xbe8c143b	-0.27359185
47	0x3e86c488	0.26321816
48	0xbd8d8f66	-0.06912117
49	0xbdfe852a	-0.12427743
50	0x3df32c1b	0.11873647
51	0x3e2a2721	0.16616489
52	0xbe1eddc1	-0.1551428
53	0xbe1651a3	-0.1467958
54	0xbe0f8b12	-0.14017895
55	0x3e5db363	0.21650462
56	0x3d2a2c51	0.04154617
57	0x3d3dfa4b	0.046381276
58	0x3e3a2aff	0.18180464
59	0x3e581577	0.21101938
60	0xbe79dccd	-0.24400635
61	0xbd94d690	-0.07267487
62	0x3c46cf10	0.0121343285
63	0xbe648c2b	-0.22319095
64	0xbe166756	-0.14687857
65	0x3c4485a5	0.011994754
66	0x3db4d760	0.08830142
67	0x3e50238f	0.20326065
68	0xbe2a3b5e	-0.1662421
69	0x3e830c87	0.25595495
70	0xbe218525	-0.15773447
71	0xbe050da4	-0.12993485
72	0x3e1d2129	0.15344681
73	0xbe487e97	-0.1957954
74	0x3e16a042	0.14709571
75	0x3e384610	0.17995477
76	0x3d83afe8	0.06430036
77	0xbe55466b	-0.20827644
78	0x3e29517a	0.16534987
79	0x3e44c1d4	0.19214565
80	0x3e307031	0.17230298
81	0xbd1a1a5e	-0.037622802
82	0x3dc46da4	0.09591225
83	0x3db99921	0.0906241
84	0x3e36028e	0.17774412
85	0xbe941522	-0.28922373
86	0x3db8c15e	0.09021257
87	0x3dcd41f4	0.10022345
88	0x3d5a962f	0.053365882
89	0xbe734a2e	-0.23758766
90	0x3d180bee	0.037120752
91	0x3d3104d1	0.043217484
92	0x3dd3d2cb	0.1034294
93	0xbc896be5	-0.016775081
94	0x3d5b3e3b	0.053526144
95	0xbe4d9784	-0.2007733
96	0xbe8498ec	-0.2589792
97	0xbe614918	-0.2200054
98	0xbdef3c22	-0.11681391
99	0xbe4556b9	-0.19271363
100	0xbe6ebaa5	-0.23313387
101	0x3e1d3a6d	0.15354319
102	0xbd1f8b5f	-0.038951274
103	0x3df2911b	0.11844083
104	0xbd6dd0c7	-0.058060434
105	0x3e2b626c	0.16736764
106	0x3e13f7b7	0.14449964
107	0x3d01e483	0.031712066
108	0xbb180b85	-0.0023200226
109	0x3dd4270f	0.10359012
110	0x3de363b3	0.111030005
111	0x3e2cd1ab	0.16876857
112	0x3e3116ae	0.17293808
113	0xbd91b1c4	-0.07113984
114	0xbd1330eb	-0.035935324
115	0xbd3ae18b	-0.04562525
116	0x3d435e0f	0.047697123
117	0x3e433110	0.19061685
118	0xbd726c37	-0.059185233
119	0xbe4faed4	-0.20281535
120	0xbe267b1b	-0.16257899
121	0x3e846a3a	0.25862294
122	0x3ceb8c27	0.028753353
123	0x3d69ad84	0.057050243
124	0xbe86bc91	-0.2631574
125	0xbde7de39	-0.113216825
126	0xbd0ae2ab	-0.033907574
127	0xbd3c1e6a	-0.045927443
128	0x3e6bcef2	0.23028162
129	0x3e146285	0.14490707
130	0x3dff822b	0.124759994
131	0x3d08d971	0.033410493
132	0xbde7cd6d	-0.11318479
133	0x3d678db0	0.056531608
134	0xbe8a4ba0	-0.27010822
135	0x3dfe52f1	0.124181636
136	0x3deaa637	0.11457484
137	0x3dcd74e4	0.10032061
138	0xbddcddf3	-0.10784521
139	0x3e521b26	0.20518169
140	0x3e3a1837	0.181733
141	0xbddac8c3	-0.106828235
142	0xbe838be5	-0.2569267
143	0xbe6beb99	-0.23039092
144	0xbe18e440	-0.1493082
145	0x3dce4eee	0.100736484
146	0x3e3d406f	0.1848161
147	0xbe7a7f50	-0.24462628
148	0x3da2ba65	0.07945708
149	0xbd930989	-0.07179553
150	0xbe182691	-0.14858462
151	0x3e8ce2d4	0.27516806
152	0xbc1ffced	-0.009764892
153	0xbe187848	-0.14889634
154	0xbe7fdd0d	-0.24986668
155	0x3dd04526	0.10169439
156	0x3dbada5b	0.09123679
157	0xbd789c98	-0.060696214
158	0xbe244cda	-0.16044942
159	0x3c6f9dfe	0.014625071
160	0xbd2c1021	-0.04200757
161	0xbe65d2f6	-0.22443756
162	0x3e083db0	0.13304782
163	0xbe69ed10	-0.22844338
164	0x3dabaa8a	0.08382137
165	0x3e5c1217	0.21491276
166	0xbe54c6b0	-0.20778918
167	0x3cae5a97	0.021283431
168	0xbe579fa0	-0.21056986
169	0xbe354bf1	-0.1770475
170	0x3e65978a	0.22421089
171	0x3d567014	0.05235298
172	0xbcac88df	-0.021061359
173	0x3e256109	0.16150297
174	0x3dcede24	0.10100964
175	0xbdadbde9	-0.08483488
176	0x3e5237ea	0.20529142
177	0xbe776fde	-0.24163768
178	0x3e6ffbf0	0.2343595
179	0x3cae32f4	0.02126453
180	0xbc2b9411	-0.0104723135
181	0xbd94d658	-0.07267445
182	0xbdfd4a8b	-0.123677336
183	0xbe105e79	-0.14098538
184	0x3e7345da	0.23757115
185	0xbe899185	-0.26868835
186	0x3e781be8	0.24229395
187	0xbe8f0506	-0.2793352
188	0x3e202367	0.15638505
189	0x3d7feda0	0.062482476
190	0xbd018cab	-0.031628292
191	0xbe6c4f07	-0.23077022
192	0xbe738f73	-0.2378519
193	0x3e1e8b95	0.15482934
194	0xbe801f7b	-0.25024018
195	0x3e2768b0	0.16348529
196	0xbbe70373	-0.0070499717
197	0x3d33e243	0.043916952
198	0xbdd0aa0b	-0.10188683
199	0x3cc8f3cf	0.02453032

fc2.bias f4 [10]
0	0x3e3525d4	0.17690212
1	0x3e19c866	0.15017852
2	0xbd47a4ed	-0.04874127
3	0xbe46d100	-0.19415665
4	0x3e0f26e3	0.13979678
5	0x3d6292c5	0.05531575
6	0xbe36593e	-0.1780748
7	0xbddf939f	-0.10916828
8	0xbe3983ff	-0.18116759
9	0xbe18e162	-0.14929727
