save_model/Student_10_0.907900.pth (torch, 65183 bytes, 4 tensors)

fc1.weight f4 [20, 784]
00000000: fc23 0b3c a401 7b3c 18d7 0b3c c70d 08bd
00000010: a5d6 afbc 631b f9bc bcee 213c 67ee 0fbd
00000020: b436 3f3c a4f9 0e3c e634 7ebc 51a5 0c3d
00000030: a601 28bd d5a1 6bbc a1de af3c 8d88 3bba
00000040: 0e4f e7bc 12a0 59bc 7005 283c 020d df3c
00000050: 5ad4 c0bc 0ac6 08bc e255 b03c 679a 10bd
00000060: a42a e3bb 439b 08bd 034e 113d ceb4 99bc
00000070: 6a4e f93c 740f 803c 9443 6b3c e04d 263c
00000080: b45d 25bd 538e bbbc d3ae 03bd 10fa 64bd
00000090: 8cf9 45bd 490b 6cbd cd0b 93bd df60 d0bd
000000a0: ae3d 85bd c5e6 90bd a0f4 c5bd 1d3d 4ebd
000000b0: 208b c9bc bf91 99bd 6d29 43bd 00dc 99bd
000000c0: 6469 9cbd 1774 b9bc fe98 50bd c819 08bd
000000d0: 76cb e33c c2c9 bb3c be05 c03c d0b4 a13b
000000e0: 2c0a 8dbc 781f ca3c 92c6 16bd a2af 97ba
000000f0: 169b 1e3b 421c 1abc 5d5c 43bd abeb 5cbd
00000100: c228 a5bd 6402 8cbd 5ca3 03be 9f88 0ebe
00000110: 499b 19be 11bf 58be cde2 1ebe d63f 1abe
00000120: 39ee 20be df9a e0bd 016b fbbd b865 1dbe
00000130: 32c7 afbd c850 4bbd a0b5 9bbd cfcd 96bd
00000140: 8ed7 d0bc 2d5b 68bc d063 67bb 100a 893c
00000150: cea3 35bc b0b2 023c ae92 053d f7f6 98bb
00000160: b85e 09bd bb05 f1bc 9ff9 3abd 55d7 8ebd
00000170: 0972 f5bc 73f3 13bd ff12 86bd 2874 9ebd
00000180: 82e3 c4bd e477 b4bd f2ba c2bd a7e6 cabd
00000190: d964 dcbd 2bec 2bbd 3582 b1bd 911b 55bd
000001a0: 9810 9ebd 485d 2ebd 93ba fdbc b670 01bd
000001b0: eeff a73b fc7f 533c c0e5 76bc 2686 6dbc
000001c0: 3a7c 07bd cfdc b03c b41c 14bc 01a0 3abc
000001d0: e063 76bc 71a4 c4bc 1b03 0bbc cb7e 5c3d
000001e0: 453e 19bc 76d9 5a3c df5f 9bbc f94a 153d
000001f0: 117c 153d a261 ed3c ab98 e33c 399c 833c
00000200: 1835 873c e6f4 013c 2d0d 8abc b94a eabc
00000210: 7f14 77bd c830 59bd 9c2c f5bc 0ff6 1fbd
00000220: 6231 02bc 2d09 eabc 29e4 a4bc e900 f5bc
00000230: c042 933b 88bf d53c 1ace cf3a 0a18 ce3c
00000240: 4c72 083b 4ab6 cc3a 28c6 7b3d 2ddb 463d
00000250: f37f 973d 0d73 483d 9077 0d3d aad3 f33c
00000260: bbbf ef3c 9a0e 08bd 098a 30b8 9b63 1a3c
00000270: 6c95 ff3b 0a2f c13c 57b9 9ebb fa7f 40bc
00000280: fe76 31bc 01bd eb3b cb70 933c fe1c a93c
00000290: c0af 9c3c bc7f 77bb 93d2 253b 08f9 633c
000002a0: e801 3b3c ae7f b0bc c4dd 063d 25b5 28bc
000002b0: 7c7d 293d e5a7 183d 66cf 043d 51a8 393d
000002c0: f77b af3c 2fab 083d 023f 23bc b369 6a3c
000002d0: ef9d 66bd 2dd4 a3bc fc14 7fbd 335b 0dbd
000002e0: 008c 64bd 5e47 23bd 578c 95bc 0510 2bbd
000002f0: ed5e 8dbc 568f 5abd 8b83 833b 274b f8bc
00000300: 0ad0 82bd 1d72 9ebd 12a2 94bc 6b04 2e3b
00000310: 0001 bdbc a03e f23b 3bee ab3d ee26 863d
00000320: 1968 68bb d245 d43c de87 803d b2be 653d
00000330: 5600 f73c 4506 4e3d a8e1 843c d3e8 fb3c
00000340: be52 45bd 7f27 93bc 3c43 89bd 1544 b1bd
00000350: fa77 76bd 5113 33bd a856 10bd 6295 49bb
00000360: dc48 d4bc edcb 05bd c6f0 1fbd 19c1 23bd
00000370: 701c 15be 19f1 d9bd 7a75 a6bd ae33 6cbd
00000380: ef4b 07bd 0eae 903d f5d0 ab3d 6aaa a43d
00000390: 1465 583d cbc9 463d dc14 8a3d 3f14 123d
000003a0: 3368 bc3d 0773 8d3d c636 fe3c 3a41 193d
000003b0: 7903 a83c 8965 ccb9 3837 003c 7cf4 9abc
000003c0: 8b98 303c a68c 3bbc 627d 3bbb a8ba b13c
000003d0: c0ac 18bb b59c 893c 4122 27bd 8ea0 c1bd
000003e0: b765 11be 2686 07be f8fa a5bd e623 64bc
000003f0: 241c 073d f7b0 933d 17a0 8c3d d261 723d
0.008492466 0.015320215 0.008535169 -0.033216264 -0.021464655 -0.030408567 0.009883579 -0.035139468
0.011670757 0.008726511 -0.015515542 0.034337346 -0.041017197 -0.0143818455 0.021468462 -0.00071538315
-0.028235938 -0.013282793 0.010255203 0.027227882 -0.023538757 -0.008347997 0.021525327 -0.0353035
-0.0069325734 -0.033351194 0.03547479 -0.018762972 0.030432899 0.015632369 0.014359374 0.010150403
-0.040372565 -0.022895014 -0.032149147 -0.05590254 -0.04833369 -0.05762795 -0.07179985 -0.10174727
-0.06505905 -0.07075266 -0.09665799 -0.05035125 -0.024602473 -0.07498502 -0.04764693 -0.07512665
-0.07637289 -0.022638364 -0.050927155 -0.033227712 0.027806979 0.022923354 0.023440238 0.0049348846
-0.017216764 0.024673209 -0.036810465 -0.0011572728 0.0024201325 -0.009406151 -0.047695506 -0.053935688
-0.080644146 -0.068363935 -0.12855285 -0.13919304 -0.15000643 -0.21166636 -0.15516205 -0.15063414
-0.15715875 -0.10967039 -0.12276269 -0.15370834 -0.08582915 -0.049637586 -0.076030016 -0.073634736
-0.02549341 -0.014181894 -0.0035307296 0.016728431 -0.011086417 0.007977173 0.032610588 -0.0046681124
-0.033537596 -0.029421678 -0.045648213 -0.06974665 -0.029961603 -0.036120843 -0.06546592 -0.07736999
-0.09613706 -0.0881193 -0.09508313 -0.09907275 -0.10761423 -0.041973274 -0.08667413 -0.052028242
-0.07718009 -0.04256943 -0.030972755 -0.03160163 0.0051269447 0.012908932 -0.015069425 -0.0144973155
-0.033077456 0.021589665 -0.0090400465 -0.011390687 -0.0150384605 -0.024004193 -0.008484627 0.053831857
-0.009353225 0.013357511 -0.018966613 0.036448453 0.036495272 0.028977219 0.027782759 0.016065704
0.01650481 0.0079319235 -0.016851986 -0.028600084 -0.06032228 -0.053025037 -0.029928498 -0.03905302
-0.007946344 -0.028568828 -0.020128326 -0.02990766 0.004494041 0.026092306 0.001585427 0.025157947
0.002082008 0.0015618291 0.061468273 0.048548866 0.07397451 0.048937846 0.03453785 0.029764015
0.029266229 -0.03321705 -4.2090225e-05 0.009423162 0.007799795 0.023582 -0.0048438716 -0.011749262
-0.010831593 0.007194162 0.01799812 0.020643707 0.019126773 -0.0037765345 0.0025302514 0.013914354
0.011414029 -0.021545257 0.032926336 -0.0102970945 0.041379437 0.03726949 0.032424353 0.045326535
0.021421416 0.03336638 -0.009963753 0.014307427 -0.05630296 -0.019998634 -0.06227587 -0.034510802
-0.055797577 -0.039862983 -0.018255396 -0.041763324 -0.017257178 -0.053359352 0.004013484 -0.030309273
-0.063873366 -0.07736609 -0.018143687 0.0026552926 -0.023071766 0.0073927194 0.08395048 0.06550394
-0.0035462438 0.0259122 0.062759146 0.056090064 0.030151527 0.050298948 0.016220883 0.030750668
-0.048174612 -0.01796317 -0.06702277 -0.08655564 -0.060173012 -0.043719593 -0.03523889 -0.0030759205
-0.025913648 -0.032665182 -0.03904798 -0.039979074 -0.1456163 -0.10641689 -0.081278756 -0.057666473
-0.0330314 0.07064448 0.08389465 0.080403164 0.05283077 0.04853229 0.0674226 0.03566384
0.09199562 0.06906705 0.031031977 0.03741572 0.020509468 -0.00038985562 0.007825665 -0.018915407
0.010778557 -0.011447107 -0.002860867 0.02169545 -0.0023296326 0.016798357 -0.04080415 -0.094544515
-0.14198957 -0.13234767 -0.08104509 -0.0139245745 0.03298582 0.07211488 0.06866472 0.05917532

fc1.bias f4 [20]
00000000: 127b 933d c7d9 003e 3292 52bd cc9b 2b3e
00000010: f8f4 7a3d a730 2d3c 58bb 593e 3267 2fb9
00000020: ecac 153e 1579 0e3d 001b 37bd e2d9 a23d
00000030: 495e 033e 1283 99bd 14b5 393d 374d 9d3c
00000040: a7c4 943b 24ca 1e3e 1283 ecbc 87b6 8e3b
0.07201208 0.12583075 -0.051408954 0.1675865 0.061268777 0.010570682 0.21262872 -0.00016727744
0.14616746 0.03478344 -0.044703484 0.07951714 0.12828936 -0.07495703 0.045338705 0.019201858
0.0045400443 0.15506798 -0.028871093 0.004355255

fc2.weight f4 [10, 20]
00000000: de29 c6be 6573 e5be 6cc8 10bf 7d15 433e
00000010: 8123 20bf 7c0b 643e 321b 0abf 61ab eebe
00000020: 4d57 d83d e6d0 7cbe d512 763e ab9f dcbd
00000030: 772c 0bbf 5eca 773e cbc9 613e 5c0e 8e3e
00000040: f901 04bf db75 abbe 2d09 f0be 96b8 cbbe
00000050: 051d ddbe 084f b33e cc80 05bf 2124 fbbe
00000060: 65f4 933e 0272 8bbe 46a5 363e f0ca 12be
00000070: 864a 10bf aee8 c8be 3d69 ebbe 6ecf 53be
00000080: f5a2 193e e52b 0dbf 6f3e 223e 4a27 d7be
00000090: 400c 853e 8a20 723e 8410 8d3e 2a22 833e
000000a0: 1b87 f03d 1f3d 57be 5084 bdbe 2ed2 10be
000000b0: 2926 6dbe a7fd 9e3d 524a ecbe 68e1 b43e
000000c0: 8522 2bbe c6d6 ccbe 8cba 2c3e 83ae 8d3e
000000d0: a1f8 e5be 672c 4bbe 722b 3dbe f434 653e
000000e0: 4b81 893d c9f4 823e 111f 993e 7524 a83e
000000f0: cf5a 7fbe 25ee 9ebe 8f04 cdbc 5d52 c7be
00000100: 06bf 9dbe 41e8 243e 586d 803d 1923 983e
00000110: e00d 98be 920c b33e e2ed 95be 6b65 1fbe
00000120: 02ff 913e 941b bfbe 813c 363e 6187 883e
00000130: 4505 11bc d0a8 a8be 3a48 633e a173 6d3e
00000140: b7aa 643e 802c a2bc 10ca 2e3e ea6f 133e
00000150: b5ff 9c3e 073b 21bf 5076 573e 30f8 513e
00000160: 776e 3e3e e042 e2be c08f 493d 94ba 74be
00000170: da1e 1c3e 6a38 b83c ab1d b2be 9852 00bf
00000180: b68e eebe cfb7 bfbe a76e d2be 9f6d c5be
00000190: 822e f0be 423a ac3c c5a8 823d 2fbf f83d
000001a0: b16c 6fbe c34c 393e 556c 153d 8546 b3bd
000001b0: 5971 5cbe da66 a53e 6aa7 1b3e 41fc 993e
000001c0: d344 9c3e 0c60 823d 66ff f73d f1fc fdbd
000001d0: 802f 04be d3f0 f7bc 42ab 26be c3f8 aebe
000001e0: 67aa 7fbe bbd3 e03e e6ee b53d 79d3 3a3e
000001f0: ad34 fabe e43a b2be 2fb4 cebe 80c9 8b3c
00000200: 2834 433e abf2 5f3d 62eb 5e3e 611a 93be
00000210: e980 c3be 7c2a f03d 096f eabe e114 1ebd
00000220: 52fb a93d 52e5 8f3e dde9 7abe b3dd 823e
00000230: 2a6e 763e 1235 9ebe 0410 ecbe 9052 d6be
00000240: 2d39 65bd 3da7 0a3e c16b 9b3e 69fb cdbe
00000250: e45d 613e e5b8 5abe b6b7 ecbe f9c4 e83e
00000260: 20ce 89be 964b 9dbe e369 d1be 8fc0 883e
00000270: e62d 6d3e d125 c1be 92c9 02be 9234 92bc
00000280: 94d7 02be f108 84be b37e 2a3e d2bb 99be
00000290: edd3 483e 3294 273e 1c0e 10be ce03 693d
000002a0: 87c1 92be 4bfd 81be ac08 3f3e ebb8 a1bc
000002b0: 08c3 533d 2bb2 523e 4fc0 f43d 0b7d 21be
000002c0: 6e4d 8d3e e154 b6be a498 863e 7a95 bdbb
000002d0: 8f6d 513e fd36 cfbe 04b8 893d a1d4 babe
000002e0: ce24 ac3e b2ca 9fbe 41a2 9b3e bfe4 04bf
000002f0: 8999 543e 4415 4e3e 3ab5 0cbe b706 b0be
00000300: a618 81be 3efb 3d3e 0f93 b0be 45dd 2d3e
00000310: 3404 c93d b58e c6be f5ed 9bbe a05e b0be
-0.38703817 -0.44814602 -0.5655582 0.19051166 -0.62554175 0.22270006 -0.53947747 -0.46615127
0.10563526 -0.24689063 0.24030621 -0.10772642 -0.5436472 0.2419829 0.22049634 0.2774533
-0.5156551 -0.33488354 -0.46882 -0.39789265 -0.43186203 0.35021234 -0.52149653 -0.49051002
0.28897396 -0.2723542 0.17836484 -0.14335227 -0.56363714 -0.3924002 -0.45978728 -0.20684597
0.1500357 -0.551451 0.15844129 -0.42022163 0.25985909 0.23645225 0.27551663 0.25612003
0.11744519 -0.2101941 -0.3701501 -0.14142677 -0.23159088 0.07763224 -0.46150452 0.3532822
-0.16712387 -0.4000761 0.16868037 0.27672204 -0.4491625 -0.19841157 -0.18473604 0.22383481
0.06714114 0.2557738 0.29906514 0.32840315 -0.24936984 -0.31041065 -0.025026588 -0.38930026
-0.30809802 0.16104223 0.06270856 0.29714277 -0.29698086 0.34970528 -0.29283053 -0.15566032
0.28514868 -0.37325728 0.17796518 0.26665786 -0.008851354 -0.32941294 0.22195521 0.2318864
0.22330748 -0.01979661 0.17069268 0.1439816 0.3066384 -0.62980694 0.21041226 0.20504832
0.18596826 -0.44191647 0.049209356 -0.23899299 0.15246144 0.022487838 -0.3478826 -0.5012603
-0.46593255 -0.37444922 -0.41100046 -0.38560197 -0.46910483 0.021023873 0.063798465 0.121458404
-0.23381306 0.18095689 0.036480267 -0.08753685 -0.21527614 0.32305032 0.15200582 0.30075267
0.3052126 0.06365976 0.1210926 -0.1240176 -0.12908745 -0.030266201 -0.16276267 -0.34174165
-0.24967347 0.43911538 0.08883457 0.18244733 -0.48868313 -0.34810555 -0.40371844 0.017063856
0.19062865 0.054674786 0.21769479 -0.28731063 -0.38184288 0.11726853 -0.45787838 -0.03859413
0.08299889 0.28104645 -0.24503274 0.25559768 0.24065462 -0.30899864 -0.4610597 -0.41859865
-0.05596273 0.13540359 0.30355647 -0.40230873 0.22008473 -0.21359594 -0.4623391 0.45462778
-0.26915073 -0.3072173 -0.40901098 0.2670941 0.2316204 -0.37724164 -0.12772205 -0.017847333
-0.12777549 -0.25788072 0.16649894 -0.30026108 0.19612093 0.16365126 -0.14067882 0.056888394
-0.28663275 -0.2538856 0.18655652 -0.019741496 0.05169967 0.20575778 0.119507425 -0.15770356
0.27598137 -0.35611632 0.2628833 -0.0057856413 0.2045195 -0.4047164 0.06724551 -0.36490348
0.3362183 -0.31209332 0.30397227 -0.5191154 0.20761694 0.201253 -0.13741007 -0.34380123
-0.25214118 0.18552873 -0.34487197 0.16978939 0.09815255 -0.38780752 -0.30454984 -0.34447193

fc2.bias f4 [10]
00000000: 4201 603e 07c0 2e3e 0608 2abe 41d2 4bbe
00000010: 0cdc 1b3e e53a 413c ab5d 9fbe ba78 443c
00000020: 8579 86be 7168 5b3b
0.2187548 0.1706544 -0.16604623 -0.19904424 0.1522066 0.011793827 -0.3112615 0.011991674
-0.26264587 0.0033479
